checkpoint_critic0.pth (torch_old, 525867 bytes, 5 tensors)

layers.0.weight f4 [400, 24]
00000000: 0e74 633c 83dd 853a b41d 87ba df96 d43a
00000010: 882c 433a b2da e1bb b41d 87ba df96 d43a
00000020: 4cc3 5d3c 248b 883a 2bb5 2bbb 60ed 03bb
00000030: 04be 0eba 1906 f3bb 2bb5 2bbb 60ed 03bb
00000040: 3373 923c 172e 743a 50c0 28ba 4bab e9ba
00000050: dc85 5fba 6152 12bc 50c0 28ba 4bab e9ba
00000060: d050 fe3b bfca cd3a e1ed 8fba d8f1 453b
00000070: 6b70 4c39 dab0 0bbb b8ed 8fba d8f1 453b
00000080: 5a47 203c 5c92 c53a 6107 82ba a744 f1ba
00000090: efb4 213b 01b1 05bb 9507 82ba a744 f1ba
000000a0: b838 7f3c 7682 733a 7a30 4fba a19e 713b
000000b0: 2d7c b43a 9ef2 76bb c030 4fba a19e 713b
000000c0: 8f11 443c 132f 77ba 4784 c83a 30d6 12bb
000000d0: 414b 183c a969 20bc 0a79 c83a 30d6 12bb
000000e0: ac2c 8d3c c584 d7ba ef6e 7b3b 922b 39ba
000000f0: 34de 563c c400 60bc a772 7b3b 922b 39ba
00000100: 6083 903c 3257 43bb 2a6c cdba e490 0d3b
00000110: 7dc8 613c fed7 81bc c086 cdba e490 0d3b
00000120: 7d6f 703c 5cad 883b 0b29 9abb 3a2b 27bb
00000130: dc58 d23b 379f d1bb 0b29 9abb 3a2b 27bb
00000140: 4011 7b3c 3ff1 bf3a 29cf 63ba 1b84 bbbb
00000150: defc e33b 8eea f6bb 29cf 63ba 1b84 bbbb
00000160: 2111 6d3c b501 d5ba 8ee4 83bb 74b5 66bc
00000170: 3d0a f03b 39d0 00bc 8ee4 83bb 74b5 66bc
00000180: 3661 893c cbed 013c 9744 16bb 0d8f bf3b
00000190: 7de4 943b a122 0fbc 9744 16bb 0d8f bf3b
000001a0: ebae ad3c 1d82 073c 87cc 21ba 33c9 583b
000001b0: 5832 8f3b b4d0 1ebc 7fcc 21ba 33c9 583b
000001c0: f0ae b83c 4b0b f23b 46c5 b5ba 9a29 00ba
000001d0: 21c5 753b 9429 36bc 82c5 b5ba 9a29 00ba
000001e0: 176f 023c e084 5aba 68e5 edba 19a8 1d3a
000001f0: 5a31 143b 34e8 96bc 68e5 edba 19a8 1d3a
00000200: ffc4 5b3c 9cf5 45b9 a62c 9ab9 e105 44bb
00000210: 383a 833a ae40 a7bc a62c 9ab9 e105 44bb
00000220: c1c7 843c 6686 d9ba 2e00 2dba 4f87 fcbb
00000230: e8b1 383a e198 a5bc 2e00 2dba 4f87 fcbb
00000240: 5f63 243c 0839 413b 5789 3abb f4e4 393b
00000250: 00cb a2bb d3d3 1fbc 5789 3abb f4e4 393b
00000260: f774 243c 8a15 903b 7450 67bb 8a2e 0d3b
00000270: bbff a2bb dc81 64bc 7850 67bb 8a2e 0d3b
00000280: be36 373c f092 ad3b 52f6 473a 7bc9 a83b
00000290: 3d4d 86bb 7981 86bc 52f6 473a 7bc9 a83b
000002a0: aca5 5b3c 86ac 2bba cb14 833a 7f3e cc39
000002b0: e20d 0f3b 9457 83bc 6b14 833a 7f3e cc39
000002c0: 2624 613c 9b09 89ba 65eb 93bb 8771 bf3b
000002d0: b21b 573a d0c7 95bc ffea 93bb 8771 bf3b
000002e0: 9cdd 413c 2aa4 fa37 c924 a3bb 121e c43b
000002f0: 3828 db3a dfdb a7bc e524 a3bb 121e c43b
00000300: 7376 8a3c e023 453a 7c22 d8ba fd9d 5a3b
00000310: fa29 083a eb77 11bc 7c22 d8ba fd9d 5a3b
00000320: 694d 913c f1a7 0d3b 0174 c3ba dc31 113b
00000330: 24c8 90b8 ba62 f8bb 0174 c3ba dc31 113b
00000340: a717 9c3c b254 493b 6925 fd39 2a0a 08bc
00000350: 241f a03a eed0 04bc 6925 fd39 2a0a 08bc
00000360: 527f 25bd 6907 bdbc bdc8 593c ce82 e43c
00000370: d811 243e bd51 0b3d 911b 40bc fedd e33c
00000380: 32a6 883c af3a 64bc d0ab a7bb 0ee0 7a3d
00000390: 8777 013e 1d13 5abd 8102 3f3c ff67 7d3d
000003a0: bac2 893d 1c10 a039 d725 36ba a19e 7d3c
000003b0: a210 dcbd 7ce1 e7bd 6725 4bbb 7432 823c
000003c0: 0ca8 f93b a52b 083c 71cf 8ebb c44c 92ba
000003d0: 9121 a53b 99b5 6fbb 71cf 8ebb c44c 92ba
000003e0: 1c28 e13b b620 be3b 7b26 1bbb 54df a6ba
000003f0: ac86 be3b af1b 8cbb 7b26 1bbb 54df a6ba
0.01388265 0.001021311 -0.0010308535 0.001621928 0.00074452953 -0.0068925256 -0.0010308535 0.001621928
0.013535332 0.0010417444 -0.0026200514 -0.00201305 -0.00054451847 -0.0074164984 -0.0026200514 -0.00201305
0.017877197 0.0009314729 -0.0006437348 -0.0017827539 -0.00085267215 -0.0089307735 -0.0006437348 -0.0017827539
0.0077610984 0.0015700682 -0.0010980928 0.0030203965 0.00019496835 -0.0021315129 -0.001098088 0.0030203965
0.009782637 0.0015073526 -0.0009920412 -0.0018407301 0.0024674495 -0.0020399692 -0.0009920473 -0.0018407301
0.015577488 0.00092891546 -0.0007903647 0.0036868232 0.0013769917 -0.0037681232 -0.00079036877 0.0036868232
0.011967077 -0.0009429317 0.0015298211 -0.0022405498 0.009295286 -0.009790816 0.0015294862 -0.0022405498
0.017233215 -0.0016442767 0.0038365682 -0.00070636824 0.013114501 -0.013672058 0.0038367899 -0.00070636824
0.01764077 -0.002980661 -0.0015672494 0.0021601254 0.01378071 -0.015850063 -0.0015680417 0.0021601254
0.014675018 0.0041710567 -0.0047045997 -0.0025507943 0.0064192843 -0.0063971537 -0.0047045997 -0.0025507943
0.015323937 0.001464404 -0.0008690232 -0.0057225353 0.0069576344 -0.0075352853 -0.0008690232 -0.0057225353
0.014469416 -0.0016251119 -0.0040250486 -0.014081348 0.0073254392 -0.007862144 -0.0040250486 -0.014081348
0.016769987 0.007930229 -0.0022929066 0.0058459104 0.0045438395 -0.0087362835 -0.0022929066 0.0058459104
0.021201571 0.0082707675 -0.00061721395 0.0033078908 0.004370015 -0.009693313 -0.0006172135 0.0033078908
0.022544354 0.0073866 -0.0013867996 -0.00048890116 0.0037501531 -0.011118311 -0.0013868066 -0.00048890116
0.007961056 -0.000833584 -0.0018150033 0.0006014123 0.0022612424 -0.01842127 -0.0018150033 0.0006014123
0.013413667 -0.0001887888 -0.00029406435 -0.002991073 0.0010011857 -0.020416584 -0.00029406435 -0.002991073
0.016208531 -0.001659584 -0.0006599453 -0.0077065597 0.0007045553 -0.0202145 -0.0006599453 -0.0077065597
0.010033458 0.0029483456 -0.0028463209 0.0028365226 -0.004968047 -0.009755093 -0.0028463209 0.0028365226
0.010037652 0.004397099 -0.0035295757 0.0021542632 -0.004974333 -0.0139469765 -0.0035295766 0.0021542632
0.011182485 0.0052970573 0.0007627952 0.0051509715 -0.004098563 -0.01641916 0.0007627952 0.0051509715
0.0134061985 -0.00065488403 0.0010000704 0.00038956475 0.0021828343 -0.016032971 0.0010000592 0.00038956475
0.013741529 -0.0010455133 -0.004514145 0.005842391 0.0008205726 -0.018283755 -0.0045140977 0.005842391
0.011832621 2.9878767e-05 -0.0049787504 0.00598503 0.001672036 -0.020490585 -0.0049787634 0.00598503
0.016902184 0.00075202994 -0.0016489769 0.0033358329 0.0005194243 -0.008878688 -0.0016489769 0.0033358329
0.017737107 0.0021614993 -0.0014911891 0.0022154963 -6.903734e-05 -0.0075801285 -0.0014911891 0.0022154963
0.019054247 0.0030720648 0.00048283793 -0.008303205 0.0012216312 -0.008106453 0.00048283793 -0.008303205
-0.040404625 -0.023074823 0.013292489 0.027894404 0.16022432 0.0340135 -0.011725322 0.027815815
0.01668081 -0.013930007 -0.005116917 0.06124883 0.12643252 -0.053240884 0.011658312 0.061866757
0.06726594 0.0003052958 -0.00069483876 0.015479715 -0.1074536 -0.113223046 -0.0030997635 0.015893199
0.0076189097 0.008311187 -0.004358225 -0.0011161794 0.005039402 -0.0036576746 -0.004358225 -0.0011161794
0.0068712365 0.0058022393 -0.002367406 -0.0012731352 0.005814394 -0.004275761 -0.002367406 -0.0012731352

layers.0.bias f4 [400]
00000000: 4902 8ebb 6088 adba 2017 48bb 7e8c aabb
00000010: 2011 0ebc 1976 bebb 934c 50bb 3332 e6ba
00000020: e432 77bb f24c 933c 73fd b1bb 10dd 6fbb
00000030: 7892 22bb 9786 02b9 c0f9 01bc 494c d9bb
00000040: c624 2bbc 1a15 6ebb cf8c 8dbb a164 d8bb
00000050: 796e f3bb b94f 45bb c567 bebb d8de c0bb
00000060: 46b2 abbb 9d2e 58bb 1a8b 233d 31d3 62bb
00000070: e3ea dfbb 97a4 2bbb a3ae 8bbb afad dfbb
00000080: e340 24ba a46e a3b9 c18f 12bc febd 953a
00000090: d9c3 8ebb 86d4 34bc 6c21 0dbc 8ed0 b43b
000000a0: bceb 0ebc 7c7d 98bb b9f4 19bc 311f f3bb
000000b0: e737 23bb 7d93 c1bb dccd 8dbb fee7 3abc
000000c0: 4bad babb 05c4 98be b503 f0ba ae53 1dbc
000000d0: 2dc9 b2b6 512f 28bb 83ce 64bb 9b1e 43bc
000000e0: 6eb5 03bc ce38 a4bb 90db 9abb 0a47 b4bb
000000f0: c4c1 42bc 352f b4bb 60fc 8abb 72b2 34ba
00000100: 51bc 4fbe e52e 89bb 2cc4 a3bb 7a7d 5dbb
00000110: ede5 cfbb a842 10bc 33eb f8bb d3a8 1dbc
00000120: 544d c5bb f4e1 2ebd 93fd 13bb c001 26bc
00000130: e372 5dbc 28f2 4abc 65e9 6fbd b7d7 053c
00000140: 7b0e e6b9 c218 ddbd 41cf 00bd 2b99 5fbd
00000150: c679 cfbb 3b61 e7bb 1d06 07ba 3815 123c
00000160: 395b 2fbc 8601 54bb 3ff2 10bc fa68 b03c
00000170: 7c4e 29bb b3b3 0dbc 3c26 ccbb 2070 e6bb
00000180: 8fd8 c7bb f142 95ba 5bdf 0ebc 6f72 01bc
00000190: ae0b 2dbc 99f6 debb f9f4 9bbb 1769 96bb
000001a0: 827d fbbb c7c0 47ba aa93 a7bb fb58 4abc
000001b0: ae8d 19bc e0b0 11bc 168a aebb 70c2 27bc
000001c0: 3051 1bbc 5f96 c33b d9db d3bd cd4b 8cbb
000001d0: 53ee 96bb bddf ddbb 1e04 aebb 416d f0bb
000001e0: d700 c33b eea3 c33c bddf b2bb 8287 67bb
000001f0: 000b 24bb 318d eabb 0ff7 e4bb 7d0c f3bb
00000200: 6601 36bb 7626 75bb 6cf7 47bc 38b4 adb9
00000210: 4867 b4bb f9d7 b5bb 381e 54bd b516 e8bb
00000220: b78b 88bb 4bda bdbb 836f d3ba ad39 833e
00000230: d160 c8bd bb12 29bb 90a3 e5b9 6015 9eb9
00000240: 5178 b9bb 36ba ed3c 5fcd b6ba 0a57 c2bb
00000250: 4ac2 afbc e1b5 f7bb ffd2 39ba 1692 3abc
00000260: a986 32ba 0794 acba e081 09bc 7db0 46bc
00000270: f562 a53c 44e9 03bc 1ecd eebb b2cb ceb9
00000280: 88cc df3b 7cf2 feba 3984 aabb 8a21 e2bb
00000290: 2275 cbb8 b503 93bb c35e f4bb ff73 91ba
000002a0: 6233 ba3a ec43 18bc 0fce 58bc 0246 5bbb
000002b0: 0d1d a6b8 c2ff 7abb 0eed 9bbc e829 d8bb
000002c0: cd56 5ebd b044 c439 904f 35bc 5278 f7bb
000002d0: 9686 a7bb deb7 0bbc bf59 23bc 46c5 d0ba
000002e0: d158 1cbc 6264 35bc d918 0fbc 34cc 71bb
000002f0: 7d7f e3bd a587 11ba bb48 f1b9 a6e4 82bc
00000300: 98b3 33bc 46e4 28ba 9409 dbbb 213f f2bb
00000310: c972 a4bb 2331 5ebb 0cd0 0cbc b6be f0bb
00000320: 3405 7abc b09b 45bb 226f d43d f5b5 823c
00000330: 8ce2 f5bb af2c 07bc 6128 babb 3b09 01bd
00000340: 7508 f9bb 81c3 62bc 8bdf 05bc 65ed b3bb
00000350: dc9f ebbb 4422 38bc 027c 49bb b50a 6cbb
00000360: b4ae 84bc b7fe 05bc db1e 5bbb 0900 66bd
00000370: 9764 cebb 4b01 7ebb b55b 03bc e297 babb
00000380: 5786 dfbb 8b41 e1bd 689a a4bb 0609 943a
00000390: 81d1 223e ba55 31bc 687e 40be 7c99 96bc
000003a0: 3d0a e3bb 22ca 87bb 3758 dfbb 8a12 d4bb
000003b0: ff72 e4ba 5e0e a6bb d571 2a3c b5d9 17bb
000003c0: 4447 bebb ead5 63bc 4db6 00b8 c553 33bc
000003d0: 881a 093d cf06 a9bb 107b 6bbc 2208 dbbb
000003e0: f6a3 e1bb 724b 24bc c0ea b1bb cc6a 9dbb
000003f0: 9e42 10bc 3787 24bb ba88 60bc f93b e5bb
-0.0043337685 -0.0013239495 -0.0030531362 -0.0052047363 -0.008671075 -0.005812418 -0.0031783923 -0.0017562568
-0.0037719542 0.017981026 -0.005431825 -0.003660027 -0.002480654 -0.00012447905 -0.00793308 -0.0066314084
-0.010445779 -0.0036328495 -0.004319764 -0.006603793 -0.007428941 -0.0030107333 -0.00581071 -0.00588594
-0.0052397577 -0.0032986768 0.03992758 -0.0034610743 -0.0068334206 -0.0026190632 -0.0042627617 -0.0068261246
-0.00062657724 -0.00031172216 -0.008945406 0.001142442 -0.004356843 -0.011036998 -0.008613925 0.0055180257
-0.008723196 -0.004653631 -0.009396725 -0.00741949 -0.0024905147 -0.0059074746 -0.004327519 -0.01140785
-0.0056969277 -0.2983705 -0.0018311652 -0.00960247 -5.3282333e-06 -0.0025662968 -0.003491313 -0.011909152
-0.008038862 -0.0050116545 -0.004725881 -0.0055016326 -0.011887018 -0.0054987916 -0.004241511 -0.00068930455
-0.20286681 -0.0041864985 -0.0049977507 -0.0033796714 -0.006344548 -0.008804955 -0.0075963973 -0.00962277
-0.006021181 -0.042695954 -0.0022581562 -0.010132253 -0.013516161 -0.012386836 -0.05857219 0.008169106
-0.00043879807 -0.10795738 -0.031447653 -0.05458943 -0.006331655 -0.0070611513 -0.0005150752 0.008916192
-0.0107029015 -0.003234954 -0.0088468185 0.021534432 -0.0025834134 -0.008648801 -0.006230144 -0.0070324093
-0.006098814 -0.0011387748 -0.008720244 -0.007900818 -0.010561867 -0.006804299 -0.0047594276 -0.0045901644
-0.007674874 -0.00076199736 -0.0051140385 -0.012350316 -0.009372158 -0.008892268 -0.0053265197 -0.010239229
-0.009479806 0.0059688534 -0.10344667 -0.004281497 -0.004606047 -0.0067710564 -0.0053105494 -0.007337243
0.005951028 0.023881879 -0.0054588006 -0.0035328572 -0.002503097 -0.0071579446 -0.0069874595 -0.00741726
-0.002777183 -0.0037406958 -0.012204986 -0.00033131405 -0.005505476 -0.0055494276 -0.05178663 -0.007082785
-0.004167046 -0.005793845 -0.0016131256 0.2562994 -0.09784091 -0.0025798518 -0.00043800147 -0.00030152034
-0.005660095 0.029019456 -0.0013946703 -0.005930786 -0.021454949 -0.0075595235 -0.0007088631 -0.011387369
-0.0006810227 -0.0013166674 -0.008392781 -0.012127039 0.020188788 -0.00805122 -0.0072876355 -0.00039443147
0.006829802 -0.0019450928 -0.0052037505 -0.006900971 -9.701612e-05 -0.004486526 -0.0074575855 -0.0011097192
0.0014205987 -0.009293538 -0.013232722 -0.0033458476 -7.920908e-05 -0.0038299416 -0.019033935 -0.0065967925
-0.054282 0.0003743521 -0.011066332 -0.007552185 -0.0051124794 -0.008527724 -0.009970128 -0.0015927933
-0.00954266 -0.011071296 -0.0087339515 -0.0036895396 -0.11108301 -0.00055515236 -0.0004602129 -0.015978169
-0.010968111 -0.0006442707 -0.0066844914 -0.0073927795 -0.0050185663 -0.00339038 -0.008594524 -0.0073469533
-0.01526003 -0.0030152611 0.103727594 0.015955904 -0.007503813 -0.0082503995 -0.005681083 -0.031502943
-0.007599885 -0.013840557 -0.008170973 -0.005490946 -0.0071906876 -0.011238638 -0.003074408 -0.0036017124
-0.016196586 -0.0081784045 -0.003343514 -0.056152377 -0.0062986123 -0.0038758095 -0.00801747 -0.0056943754
-0.0068214345 -0.109988295 -0.0050232895 0.0011294193 0.15900232 -0.010823661 -0.1879822 -0.018383734
-0.0069287107 -0.004143969 -0.006815936 -0.0064719366 -0.0017429291 -0.0050676307 0.010403116 -0.0023170535
-0.0058068354 -0.013905982 -3.068736e-05 -0.010945265 0.033472568 -0.0051582824 -0.014372602 -0.006684319
-0.0068860007 -0.010027753 -0.0054295957 -0.004803991 -0.008804945 -0.0025105008 -0.013704473 -0.0069956747

layers.1.weight f4 [300, 402]
00000000: 7d25 8cb2 20ec 5484 d9ca 27ba 36d0 c1b9
00000010: 332e 2ab8 20e4 8d39 4b79 7a3a 61be 753a
00000020: 8e46 f99a 34ab 693b 729c 5e3a 0348 10b5
00000030: a5a9 65bb be84 c237 e232 8bb5 8998 473a
00000040: c0ed cbb9 cab5 64b5 66ee c5b7 9d2b 1d39
00000050: fdd1 8739 f761 0eb9 4f10 be3a 4952 2dba
00000060: 7a7b a139 80ed 9baf af38 973b 9bc4 8eba
00000070: 45a2 3abb 9637 b981 c7ae d2b7 d94c cc37
00000080: 1b1b 44b7 aff9 d7b4 3fd0 01bb a4d9 6dba
00000090: 7c30 ad3a f9c3 1b39 471a 4039 ea5c 843b
000000a0: 721e 2e3a f7ed e338 211b 4e3a 18b3 85b7
000000b0: 3133 18bb f3e7 cc39 8ea4 d2bb 700e c3b9
000000c0: 40d6 2339 da9d 45bb 248e 01bb 24bb 60bb
000000d0: b3a0 0bb3 67f2 01b8 a606 a5ba 5e49 5b39
000000e0: 7864 00ba bd86 45ba abc3 2639 9345 14ba
000000f0: 493b 8b37 84eb 7b3a 4a5d f0b9 d620 94a0
00000100: ff83 e139 dc9c 3639 1821 1f3a 1be8 06b8
00000110: 5627 c3b9 6545 353a ba34 033a 7ec5 89b7
00000120: 998a 4bb9 0dc2 013a d65f 4581 54d9 2fbb
00000130: c629 c23a 54fd abbb d40e b43a 1b34 c63b
00000140: 605a c180 0beb 1039 564d fa3a 2229 12bb
00000150: b3cd 61ba 0cbf f539 f172 ad35 97a5 903b
00000160: fe3d f939 8859 90ba 0add c43a 342f aeba
00000170: af60 8bbb 468b 5538 32b4 953a 4d55 6a3a
00000180: 825f b1b9 4aa6 cf34 0adb 6e39 3258 a4ba
00000190: 3f54 80b9 2512 f43a 566d 59b9 db6b 1637
000001a0: c9ce cbb9 1e43 7322 ef24 e5ba 46b2 c336
000001b0: 27dc 36b6 2cca b3b6 b0ef 9736 a13b 0b3a
000001c0: df8e ec38 bf0c c1ba e520 e039 ae7e 73b9
000001d0: 64af 8739 5658 31bb a5f8 d5b8 91df deb7
000001e0: 2b74 f83b aec4 8abb 1a52 6439 3f9a 0239
000001f0: b3c0 3934 d0f3 29ba 6ca4 0839 4490 c4ba
00000200: 7f14 be39 a42b ae9a 36f4 46bb 126c ad81
00000210: 3ed0 5db6 6269 dcb7 a0a0 d63a 9f8d e5b7
00000220: a60c 3237 7d1e d2ba 7ff4 3938 3304 313b
00000230: 99e4 d639 f65c 773a 946d 16b4 3a93 1037
00000240: 1392 03ba b6ec 1ebb 41b7 5bae 5e2a 503a
00000250: a702 2c3b 77ca 9fb6 34de ba80 a596 93bb
00000260: 5c5e 5981 eda3 cab7 b106 6b37 37d5 2abb
00000270: a489 1fbb a484 4539 6e9d 9cba c177 4fa2
00000280: c8b4 44bb 280c 09ad 1288 df3a ff32 5aba
00000290: b8f0 1c38 6b0e e1ba 7a24 1238 dac0 23b0
000002a0: d024 4cba 4f2e 6838 9bbb 7537 08a4 a080
000002b0: b03f cc00 eb6f a9b7 30e2 28bb 0b7e 3bba
000002c0: 8c90 003b fdaa 173c 7af3 5fba 23f2 a637
000002d0: 2c14 0734 8418 97b9 7094 57ba ddf3 17b6
000002e0: bc68 81b9 38a2 feb9 0c58 09b8 19fa 9537
000002f0: cca4 863b bc3e b636 b366 5238 9cad ceba
00000300: b771 943b 1088 a5b0 4dd4 ebb9 8cf7 70ba
00000310: d283 9c38 c943 fd36 b830 553a 9860 edb8
00000320: 1a45 1b3b 7d85 4cba 8eea 093c 0b9b e63b
00000330: 80b2 bfbb e391 4e3b 92bf 3c39 ee2b 05bb
00000340: c2e3 9639 e134 7839 4c70 d638 9729 66bb
00000350: 271d 7c3b 6dc1 7339 9689 82ba 3bb8 beb9
00000360: 0ce0 af39 e2ee dd3a a2f7 0f39 0d05 cb39
00000370: 1fc8 4db9 1d76 c734 b8ec 39bb b2fc 9337
00000380: 9469 b7b7 546e 06bb 1523 99b9 f4fc 15bb
00000390: 77ad 203a dc41 27b9 cebd b2ba 821d 8c39
000003a0: 68f5 463a f939 8ab5 efaa 4f3a 24ae a138
000003b0: 3acb 7835 dfff 9bbb b1c9 193c 54c9 bd34
000003c0: 0fa1 fb3a dff5 22bb af34 7436 ab7b 9dba
000003d0: c1e6 f23b 9274 3dba 025c 5a39 8cec e537
000003e0: 3929 a8ba 77f6 cdb8 ce07 7cb8 dd9e 2cb8
000003f0: 6f0b c2b9 9944 eeb7 d1fa 373a f229 c2b7
-1.6315193e-08 -2.5028904e-36 -0.0006400771 -0.00036966958 -4.0574185e-05 0.00027063582 0.0009554817 0.0009374377
-1.03097974e-22 0.0035655024 0.000849194 -5.374897e-07 -0.0035043743 2.3188415e-05 -1.0371116e-06 0.0007613977
-0.00038896315 -8.5201157e-07 -2.3595243e-05 0.00014988934 0.0002590566 -0.0001357867 0.001450071 -0.0006611688
0.0003080031 -2.836309e-10 0.0046149115 -0.0010892333 -0.0028478068 -6.803803e-38 -2.5115338e-05 2.435448e-05
-1.1688821e-05 -4.022854e-07 -0.0019807962 -0.00090732635 0.0013213302 0.00014854957 0.00018320336 0.0040393965
0.000664211 0.00010868528 0.0007862319 -1.5938233e-05 -0.0023223872 0.00039082728 -0.006428308 -0.00037204055
0.00015624706 -0.0030153901 -0.001976856 -0.0034291232 -3.2509615e-08 -3.098175e-05 -0.0012590482 0.00020912799
-0.00048977835 -0.0007535031 0.00015903886 -0.00056561193 1.6597698e-05 0.00096099847 -0.00045845873 -2.5093904e-19
0.0004301369 0.00017415307 0.00060703 -3.2164255e-05 -0.00037222606 0.00069149426 0.000500511 -1.6423637e-05
-0.0001941122 0.00049498753 -3.6251944e-38 -0.0026832419 0.0014813475 -0.005248705 0.0013737329 0.006048692
-1.7756671e-38 0.0001382047 0.0019096534 -0.002230235 -0.00086137204 0.00046872383 1.2922957e-06 0.004414271
0.0004753917 -0.001101301 0.0015019488 -0.0013289214 -0.004253469 5.0912866e-05 0.00114215 0.00089391024
-0.0003383123 3.8677746e-07 0.00022779047 -0.0012538491 -0.0002447683 0.001862113 -0.00020735463 8.965809e-06
-0.00038873244 3.2968173e-18 -0.001748232 5.8322066e-06 -2.724826e-06 -5.3581516e-06 4.528054e-06 0.00053113146
0.00011279969 -0.001472853 0.00042749118 -0.00023221478 0.00025879883 -0.002706071 -0.00010202945 -2.6568569e-05
0.0075822077 -0.004234872 0.0002177436 0.00012455227 1.7299571e-07 -0.0006483169 0.00013031223 -0.0014996608
0.00036254895 -7.203522e-23 -0.0030357963 -6.3705237e-38 -3.305278e-06 -2.6275116e-05 0.0016374774 -2.7364875e-05
1.0612572e-05 -0.0016030815 4.4335142e-05 0.002701056 0.0004098758 0.00094361545 -1.4009703e-07 8.617348e-06
-0.000501902 -0.0024249977 -4.9957597e-11 0.00079408835 0.0026246698 -4.7621393e-06 -1.7161114e-38 -0.004504042
-3.9924305e-38 -2.415661e-05 1.40086495e-05 -0.0026067027 -0.0024343515 0.00018836797 -0.0011948773 -2.8117128e-18
-0.003001498 -7.790248e-12 0.0017054102 -0.0008323639 3.7417485e-05 -0.0017170435 3.4843084e-05 -5.9573113e-10
-0.0007787468 5.535624e-05 1.4646818e-05 -1.4752523e-38 1.8757288e-38 -2.0198486e-05 -0.0025769584 -0.0007152266
0.0019617407 0.009257075 -0.0008543056 1.9901496e-05 1.2580193e-07 -0.0002881923 -0.0008223718 -2.26427e-06
-0.0002468283 -0.00048567518 -3.2745345e-05 1.7878645e-05 0.004109001 5.431326e-06 5.0163548e-05 -0.0015768292
0.0045301574 -1.2044001e-09 -0.0004498087 -0.0009192161 7.463213e-05 7.547879e-06 0.0008132565 -0.00011319033
0.002369231 -0.0007801874 0.008417739 0.0070375255 -0.0058501363 0.003152006 0.00018000443 -0.0020320374
0.00028779922 0.00023670822 0.00010225232 -0.0035120004 0.0038469525 0.00023246343 -0.0009959217 -0.00036376886
0.0003354553 0.0016932155 0.00013729793 0.0003872294 -0.00019624874 3.7152577e-07 -0.0028369855 1.7641436e-05
-2.1864464e-05 -0.0020512538 -0.00029208572 -0.0022886368 0.0006129364 -0.00015950896 -0.0013636888 0.00026724866
0.0007589669 -1.0298673e-06 0.00079218944 7.7095145e-05 9.2682933e-07 -0.004760727 0.009386466 3.535048e-07
0.001919778 -0.002486579 3.63895e-06 -0.0012015005 0.007412762 -0.0007227148 0.00020824376 2.7409078e-05
-0.0012829668 -9.8210694e-05 -6.008875e-05 -4.115595e-05 -0.00037011082 -2.8403754e-05 0.00070182706 -2.3146134e-05

layers.1.bias f4 [300]
00000000: 577d 9eba 9c66 e2ba dc74 24ba 1609 48bb
00000010: c683 9299 00ab d4ba 444d 46a6 6eaf 80ab
00000020: 6a26 81bb 7958 07bb e5a9 9caf f111 09bb
00000030: 7394 a4ba 6cfc 0601 c724 45af 6165 03a0
00000040: faf4 963a c2fe dda0 fcae db00 8f80 e5ba
00000050: f9c4 a1a2 2922 53b6 f02c dcb9 98de 2fbd
00000060: f724 35b3 7908 3dba d7c0 463d cc84 8dbb
00000070: 358d 7bba af4a 8338 5584 22b9 c34d 85ba
00000080: 11b8 23a9 3ed1 7abb ec7a 85ba 7388 4104
00000090: 86f4 b7b9 ca79 18ba 974f fab9 969a f2b9
000000a0: 7699 7da0 239f 533e 204a 09b8 b3a5 dcbb
000000b0: a536 87ba 321d b4ba f73b 363e b050 64ba
000000c0: f5d5 26ba 9412 57bb 35b5 adb8 701d 26b9
000000d0: 7aa6 3bba abff 15ba c066 3099 eba5 a9ad
000000e0: 7e4f 9385 2ddb 90bd 76e6 d9bd 286b fcbc
000000f0: 8e65 4ab8 6aad b29d 49b6 b8a2 8c82 74b4
00000100: 42ee 6cb9 761a 8cbb de87 60b8 dca4 6abb
00000110: ef2c a3b7 9c52 6dbd 37b2 a8bb c9e3 36ae
00000120: 2867 32b0 889e 19b9 dcee 3e9d 5979 51b6
00000130: 0972 c13d a678 28ba 02c6 49b0 a34a 12bb
00000140: 4137 b7ba de76 83bd 3556 ddb0 84a9 b0b3
00000150: 9162 eab7 a573 cb3d 94e8 ec94 df93 2fb8
00000160: 9518 a8b8 dbf3 21bb f6e8 86bb ec37 37b7
00000170: 5ce2 d2be 69a0 b6bd 1578 afb9 3ed7 67a6
00000180: 546b 59ba 10d2 4794 a39c ab9f 5a98 25b8
00000190: 436e 24ba dfc6 b9b2 73c0 c2ad bcde 5602
000001a0: 38f0 78bb e0c9 c3b3 0b39 c600 eeb3 41be
000001b0: e9a1 91bb ea9e 66ba 75c6 843d e0ec 26b6
000001c0: fa97 deba a615 57b0 c841 763d ba22 e3b4
000001d0: 510a 14b2 7d67 fcbb 07fe 44bb 4098 0cb7
000001e0: 5f68 29b5 a24d 933c f7ae 1ebd 718f 9aba
000001f0: ddea 57bd 7512 a4bb 236d 49ba b438 8cbb
00000200: a39e f2ba 08e4 dd3d ef1a 03bb eba3 d0b6
00000210: 7d4f e0b1 a1e6 18b9 88d0 94bb 3c4e b0b6
00000220: c309 a9bb c3b4 0bbb d757 90ba 7655 20bb
00000230: 2041 c0bb 5d14 89bb 3495 8ebb 157c 5ebb
00000240: 4390 8bbb c393 643e b99c a7b2 64d6 81bb
00000250: 5b79 02bc 41d7 a2bb 02cf 64ba 639b ccb6
00000260: a07b babd fb98 cf3d 65c8 4dac 1919 3fb9
00000270: 3d96 558c c546 a1bd 8732 3cba 7983 6eba
00000280: e1bb b498 1ad6 ebb7 d3fb 9ab9 59e4 12bb
00000290: 6b61 cfba b41b 9ca5 1989 96bb 75a1 08bb
000002a0: b41b 23b7 fbdf babb 30d4 bebd 5187 82ba
000002b0: de11 e3ba b9f8 1889 97ca 8fbb 4790 b4b9
000002c0: 226b 98bd 7a65 55bb 1ddb 3fb3 51b9 6fbb
000002d0: 391d aab4 9918 41ba eedd 8aba bb8a 02ac
000002e0: fa5a 96bd f41a 82a8 5877 12bb cb06 20ae
000002f0: 3543 a73c 7582 b2be d3c9 95b8 8cd6 35bb
00000300: fde8 543a 4ba6 3bbb 23d7 c13d b59c afbb
00000310: 0ae5 95b8 313a c8b4 a5ba 5e3e 7893 3aba
00000320: 752c 1abb 648f 75ba 113c 95ba 8eaa c7b6
00000330: 9030 899e a843 07b6 6447 f3ba a21c 8ebe
00000340: 6b19 56bb 71d7 1390 d07a bbba 5dac 14bb
00000350: 1594 33ac 670b 08bb 5be2 e0b9 4fc9 30ba
00000360: c6b5 a8ba f9fb d3ba 4851 ceb7 9c30 61ba
00000370: 5555 6db4 754a c03c 061b 13b1 d196 0bbb
00000380: 8b0c 1faa f074 58ba ec6b 1701 9cf3 81bb
00000390: 6c25 15bb ff2c 6abb 18db 59bb 956e 1dbb
000003a0: fac7 c7aa 01ae 1103 2d82 a0bc ff48 0eba
000003b0: 355e 42bb 48e7 1fbb b54c 6ebb 1f2d 2ab3
000003c0: 13eb fdb8 8795 f385 817a 24b2 4301 ddba
000003d0: 8333 84ac 1ba6 233b 9d04 96bd 01df 61ba
000003e0: 8db9 9bba bb0a 34b1 4b4a 95b9 3d6c a3bd
000003f0: 92af 95b7 5199 2239 5e8e 91bc 801d 26ac
-0.0012091798 -0.0017273012 -0.0006273517 -0.0030522994 -1.5149269e-23 -0.0016225278 -6.8799764e-16 -9.143639e-13
-0.003941347 -0.00206521 -2.8496952e-10 -0.0020915235 -0.0012556448 2.4793017e-38 -1.7930112e-10 -1.1129675e-19
0.00115171 -3.760744e-19 2.0174746e-38 -0.0017509627 -4.384769e-18 -3.1461334e-06 -0.0004199515 -0.04293689
-4.2175966e-08 -0.00072110404 0.04852375 -0.004318809 -0.00095959316 6.260478e-05 -0.00015498821 -0.001017027
-3.6352923e-14 -0.003827169 -0.0010183728 2.2749695e-36 -0.00035086664 -0.0005816488 -0.00047743015 -0.00046273012
-2.148071e-19 0.20666175 -3.273238e-05 -0.00673362 -0.0010315968 -0.0013741611 0.17796312 -0.0008709533
-0.00063642795 -0.003281747 -8.283035e-05 -0.0001584196 -0.0007158291 -0.00057219964 -9.119737e-24 -1.9286758e-11
-1.3853014e-35 -0.070730545 -0.1063966 -0.030812815 -4.8255133e-05 -4.7295514e-21 -5.00663e-18 -2.2771763e-07
-0.00022595472 -0.0042756153 -5.3532298e-05 -0.003580383 -1.9452038e-05 -0.05794011 -0.005148198 -4.1584323e-11
-6.4902617e-10 -0.00014650275 -2.5269778e-21 -3.121406e-06 0.094455786 -0.00064266694 -7.340476e-10 -0.002232232
-0.0013978259 -0.064191565 -1.6104368e-09 -8.2264734e-08 -2.7940872e-05 0.09934167 -2.3921646e-26 -4.1860967e-05
-8.015443e-05 -0.0024712 -0.0041171266 -1.092067e-05 -0.41188323 -0.089173146 -0.0003346807 -8.043593e-16
-0.0008293886 -1.008836e-26 -7.268045e-20 -3.9480954e-05 -0.0006272534 -2.162727e-08 -2.2140711e-11 1.5786159e-37
-0.0037984978 -9.117116e-08 1.8203891e-38 -0.18916294 -0.00444435 -0.0008797484 0.06483165 -2.4873807e-06
-0.0016982548 -7.824731e-10 0.060121328 -4.2307312e-07 -8.6170795e-09 -0.0077027665 -0.0030058639 -8.380099e-06
-6.3109286e-07 0.017981354 -0.03874108 -0.0011792016 -0.052714217 -0.005007083 -0.0007683804 -0.0042792205
-0.0018510412 0.10834509 -0.0020005067 -6.2179656e-06 -6.528295e-09 -0.00014581766 -0.0045414604 -5.2543164e-06
-0.0051586344 -0.002131746 -0.0011012506 -0.0024465001 -0.0058671385 -0.0041833357 -0.0043512825 -0.003394847
-0.0042591407 0.22321992 -1.9512628e-08 -0.003962325 -0.007963504 -0.004969508 -0.00087283563 -6.097763e-06
-0.09105611 0.101366006 -2.9243493e-12 -0.00018224529 -1.6454134e-31 -0.07874826 -0.000717916 -0.00090985704
-4.671862e-24 -2.8113882e-05 -0.00029560793 -0.0022413938 -0.001582188 -2.7080459e-16 -0.00459398 -0.002084819
-9.722007e-06 -0.00570297 -0.09317815 -0.000995854 -0.001732405 -1.8413283e-33 -0.0043881643 -0.0003443977
-0.07442309 -0.0032561705 -4.4669935e-08 -0.0036578963 -3.168623e-07 -0.0007366031 -0.0010594705 -1.8551122e-12
-0.07341571 -1.4444588e-14 -0.0022348966 -3.638582e-11 0.020417789 -0.34865156 -7.142466e-05 -0.0027746288
0.0008121876 -0.0028633054 0.09464862 -0.005359257 -7.1475355e-05 -3.7295243e-07 0.21750887 -0.00071173115
-0.0023525034 -0.0009367375 -0.0011385699 -5.9505173e-06 -1.4525524e-20 -2.0155949e-06 -0.0018560705 -0.2775622
-0.003266896 -2.9156608e-29 -0.0014303569 -0.0022685744 -2.5519632e-12 -0.002075875 -0.00042893257 -0.00067438645
-0.0012871556 -0.0016173116 -2.4594963e-05 -0.0008590312 -2.2103389e-07 0.023473004 -2.1406676e-09 -0.002129961
-1.4126389e-13 -0.0008257171 2.781175e-38 -0.003965808 -0.00227579 -0.0035732386 -0.0033242162 -0.002402221
-3.5488263e-13 4.2811417e-37 -0.019593323 -0.00054277474 -0.0029658203 -0.002439933 -0.003636164 -3.9622247e-08
-0.00012107766 -2.2906538e-35 -9.5739106e-09 -0.0016861338 -3.7573846e-12 0.0024970833 -0.07325099 -0.0008616299
-0.001188086 -2.6199547e-09 -0.00028474847 -0.07979629 -1.784394e-05 0.00015506639 -0.017768081 -2.3606395e-12

layers.2.weight f4 [1, 300]
00000000: bc98 9c39 2768 f938 9f02 1e3b 56df 6db8
00000010: a119 84b7 ff5d d6b8 366c 68b7 e38a c4b9
00000020: 4a18 4a38 a079 0338 d116 84b8 fb7c 073a
00000030: 1a9a 093b 0e88 e6b5 969d e0ba 6798 9c38
00000040: e602 c1bb 5660 41b6 5956 e0b5 c88a 1f3a
00000050: d3c1 a1b3 d2de 52ba 6d56 a237 8c19 7f3e
00000060: a0fb ec3a 7422 b6ba 461a 503d ee51 9e3a
00000070: 315f 8cba 6f62 a538 3cec dc39 25eb cb37
00000080: 4f22 c4ba 05ab b23a 4bd5 313b 482c 9037
00000090: e30b f138 d7ee 07b9 ea23 e439 a26e 3bb9
000000a0: 10eb d3b9 6009 81be 7e3c 0eba 199f 52ba
000000b0: 102d ff36 d93e 133b ed2b a5be 19c4 d0b8
000000c0: bddf 1fba 1a8a 8e37 68ba c1b9 dc85 393a
000000d0: ea35 a4b8 f75b 1cba 94fd fc37 e932 91b7
000000e0: e9ad 2539 23b4 8dbe ac34 8bbe 350c 4fbe
000000f0: e9c5 f9b9 8bd8 8833 69ce e937 79bb 3aba
00000100: 9904 403a 2704 dd39 2a59 00ba 8c47 8a3b
00000110: adc7 973a 48d8 85be 9efe b63a 8ed6 0339
00000120: b8f2 1eb9 b2bc 09b7 b879 0eba cb05 08b9
00000130: d343 5bbe 7069 d6b9 d43d ddb3 d0d8 0cb9
00000140: 288f 1e3b d688 7fbd 6d8d a4ba 45c9 8039
00000150: 69c8 19b9 39ab f1be fa9d c0b4 2af2 9db6
00000160: f36a 79b9 147b d0b8 07d5 153a e7b4 7eb9
00000170: 8bac 6ebe fd77 53be 713e 3cba 9120 c739
00000180: 10c1 91b8 2de9 3bb8 0212 e2b3 e073 1eb9
00000190: 37d7 6f39 5ee1 d8ba e32a 76b8 8edb 35b8
000001a0: 4440 acb8 c678 3b39 2133 3037 ac2c febd
000001b0: 71d9 7039 eadc afb8 6395 303e 6f44 f938
000001c0: 4edb c63a 77ae cdb7 b017 2c3d e286 13ba
000001d0: d0a2 ad38 492e 41b9 951d b838 8d8b c3ba
000001e0: 1446 e7b9 c3d0 8f3c 4f1c 0fbe a70f 2fba
000001f0: 3cb1 0dbe 8c23 d339 6af8 14ba e0ab e03a
00000200: c5d3 a6b8 d6ed 6f3d b6d5 47ba 0e3f 03b7
00000210: d2d9 ddba a332 713a 4f02 623a c117 ed38
00000220: ffaa e63a 306a a4ba 4465 afb8 f70a 833c
00000230: 603c bf3a df99 0bba 6876 3e3a 74a3 233b
00000240: 9585 273a 7d8b 76be a1f5 cdb8 5971 fe3a
00000250: efee 58b8 eec2 1dba 34eb 76b9 ac60 b73a
00000260: 1783 47be b3ed 02be d5ae 5eba 714a b1ba
00000270: d181 95b8 feea d83d 5f57 8fb9 41e5 8937
00000280: 8b01 a935 f72e 0737 b608 843a 918a fc38
00000290: 6e0a a8b7 cba9 0538 010f 02b9 bc26 b738
000002a0: ce6f 6ab7 4631 91b8 31e5 8d3e 4dc0 6cb8
000002b0: d1aa 2cb9 5e1a 0838 bad3 c339 1092 0db9
000002c0: 76f7 16be 9268 98b9 a341 c3b7 90f8 db39
000002d0: 1a1c c3ba 84b9 19ba af45 4e3a c8b9 98ba
000002e0: 0ee9 29be 1765 0fb9 17d5 16bb b163 9032
000002f0: 87e2 d13e d5c4 3cbe 465e ccb9 26d1 0539
00000300: 46e8 303b 8ec3 3e39 59d4 6c3e a86b 8539
00000310: 3257 133b e352 81b9 6fc0 363e 7377 c8ba
00000320: d8a7 b6b8 5578 44b9 925c e338 9ff1 1039
00000330: 3f2f 4837 fd4a ec36 aac2 0eb8 4cbc d1bd
00000340: 6630 b9b7 891b f2b7 d749 0aba aa71 c839
00000350: 2602 9e39 1ce2 9b39 6dde d9b9 faa8 1bb9
00000360: 68c4 25ba 25a3 d238 12eb 3238 73c3 35b8
00000370: 7beb 5c38 fd30 15bd 2210 823a 932d 2bb9
00000380: 5dae 6d38 f101 e038 c681 3a36 fc93 93b9
00000390: ef64 a13a 87c4 46ba 3491 7c3a 1ff5 e2b7
000003a0: 24c5 74b3 1f6d 2cb9 bdd4 73bd 0053 17ba
000003b0: 6391 77b9 0eda 6e3a f0b0 0cb8 2b32 d636
000003c0: d521 18b8 fdcf 2834 239e 5439 c727 cf39
000003d0: 0cf9 60ad ca55 1938 367a 50be 9068 31b7
000003e0: b7cc 14ba 0eea 2339 d077 b0ba 0d5f 363e
000003f0: b948 8dba d8d1 973a 227d 8cbe 5588 20b7
0.00029868435 0.00011892645 0.002411045 -5.67132e-05 -1.574756e-05 -0.00010221823 -1.3853472e-05 -0.00037487512
4.8183174e-05 3.1346106e-05 -6.2985004e-05 0.0005168465 0.0020996393 -1.7175932e-06 -0.0017136808 7.467047e-05
-0.005890238 -2.8815316e-06 -1.6714431e-06 0.00060860487 -7.532403e-08 -0.0008044067 1.935215e-05 0.24912089
0.0018080361 -0.0013895766 0.050806306 0.001207886 -0.0010709522 7.886148e-05 0.00042137678 2.4308983e-05
-0.0014963838 0.001363129 0.002713519 1.7186758e-05 0.000114939896 -0.00012963578 0.00043514307 -0.00017874924
-0.0004042019 -0.25202465 -0.0005425884 -0.00080345717 7.604838e-06 0.002246788 -0.32260075 -9.954739e-05
-0.0006098708 1.6992028e-05 -0.00036950712 0.00070771365 -7.830172e-05 -0.00059646316 3.0158822e-05 -1.7309054e-05
0.00015800413 -0.27676496 -0.27188623 -0.202195 -0.00047640436 6.3723824e-08 2.7871882e-05 -0.00071232725
0.0007324904 0.00042155499 -0.0004896099 0.004219955 0.0011579894 -0.26141572 0.001396138 0.00012573061
-0.00015158474 -8.20977e-06 -0.00054350076 -0.00012972129 -0.21412592 -0.00040895818 -1.0302361e-07 -0.0001343221
0.0024194214 -0.062386356 -0.0012554355 0.0002456402 -0.00014665876 -0.47200945 -3.587773e-07 -4.707156e-06
-0.00023786332 -9.941138e-05 0.00057156425 -0.00024290719 -0.23308007 -0.2065124 -0.00071809354 0.00037980502
-6.9500995e-05 -4.4801436e-05 -1.0527221e-07 -0.00015111221 0.0002287299 -0.0016546657 -5.8690912e-05 -4.335824e-05
-8.2135695e-05 0.00017878701 1.0502322e-05 -0.12410864 0.00022969187 -8.385799e-05 0.17244487 0.00011885992
0.0015171559 -2.4519146e-05 0.042014778 -0.0005627704 8.279609e-05 -0.00018423157 8.779314e-05 -0.0014918909
-0.00044111966 0.0175556 -0.13975643 -0.00066780526 -0.13837141 0.0004027154 -0.00056827685 0.0017141066
-7.954942e-05 0.058576427 -0.0007623093 -7.8228895e-06 -0.0016925877 0.0009200966 0.000862156 0.00011305465
0.0017598568 -0.0012543853 -8.3635125e-05 0.01599644 0.0014590137 -0.0005325358 0.0007265569 0.0024969252
0.00063904497 -0.24076648 -9.820914e-05 0.0019412442 -5.1720937e-05 -0.00060181215 -0.00023548008 0.0013990602
-0.194836 -0.12785988 -0.000849468 -0.0013526214 -7.129054e-05 0.10591696 -0.00027340182 1.6438427e-05
1.259193e-06 8.057562e-06 0.0010073397 0.000120421064 -2.0032017e-05 3.1867803e-05 -0.00012403356 8.733335e-05
-1.3973518e-05 -6.923317e-05 0.27713922 -5.644588e-05 -0.00016466832 3.2449483e-05 0.00037351047 -0.0001350122
-0.14742836 -0.0002906961 -2.3276376e-05 0.0004195613 -0.0014885694 -0.0005864131 0.000786866 -0.0011652047
-0.1659281 -0.00013675202 -0.0023015195 1.680914e-08 0.4099314 -0.1843446 -0.0003898015 0.00012761782
0.0026993915 0.00018192662 0.23127879 0.00025447947 0.0022482392 -0.00024666553 0.17846845 -0.0015294388
-8.7096996e-05 -0.00018736844 0.00010841446 0.00013822921 1.1931929e-05 7.042078e-06 -3.4036733e-05 -0.10240993
-2.2076256e-05 -2.886147e-05 -0.0005275285 0.0003823166 0.0003013771 0.00029732368 -0.00041555185 -0.000148449
-0.00063235173 0.00010043968 4.2657433e-05 -4.333579e-05 5.2671396e-05 -0.036423672 0.0009923021 -0.00016324809
5.666759e-05 0.00010681514 2.7791698e-06 -0.00028148282 0.0012313406 -0.00075823854 0.0009634674 -2.7055443e-05
-5.6989975e-08 -0.00016443849 -0.059529055 -0.0005772561 -0.00023609916 0.0009111472 -3.3543387e-05 6.3835373e-06
-3.6271133e-05 1.5721885e-07 0.00020276806 0.00039511753 -1.2788225e-11 3.655794e-05 -0.2035912 -1.05743675e-05
-0.0005676257 0.00015632084 -0.0013463441 0.17809696 -0.0010779119 0.0011582924 -0.2743922 -9.568485e-06
