checkpoint_critic1.pth (torch_old, 525867 bytes, 5 tensors)

layers.0.weight f4 [400, 24]
0.0066019353 0.00018187753 -0.0008745151 -0.0021668747 0.00074397126 -0.0012316237 -0.0008745151 -0.0021668747
0.007887948 0.00021743914 -0.00092135585 -0.00015977913 0.00033408063 -0.001001169 -0.00092135504 -0.00015977913
0.008395475 0.00024873792 -0.00027285758 0.001116316 0.0008490885 -0.0012383042 -0.00027285758 0.001116316
0.012541436 0.0013043998 -0.00041131672 0.0027695952 0.0025015653 -0.0055323387 -0.00041149874 0.0027695952
0.01371978 0.0012715937 -0.0014176116 0.00105587 0.0018300663 -0.0057775658 -0.001417477 0.00105587
0.014158366 0.0011506927 -0.0005033888 -0.0020881298 0.0012222382 -0.0059373784 -0.00050346676 -0.0020881298
0.007585519 0.004352922 0.0006812905 -0.0010782937 -0.004623183 -0.009849592 0.0006812905 -0.0010782937
0.014355414 0.0061197598 0.00091917877 0.0077984263 -0.0026101233 -0.008978039 0.00091917877 0.0077984263
0.016172716 0.006792686 -0.0028969299 0.003666943 -0.0028730344 -0.007991317 -0.0028969299 0.003666943
0.012642495 0.006499148 -0.017439341 0.0044922684 -0.042352945 -0.053295046 0.011045592 0.0045967815
0.011047869 0.004861622 -0.0072880355 -0.009861227 0.008727521 -0.06262462 0.0034441391 -0.010170888
0.029163877 0.0025566712 0.012790867 0.0068554548 0.0705635 -0.039870936 -0.01937009 0.0073386556
0.0114051625 0.0029508576 -0.00016694305 -0.00888649 0.0010928556 -0.0109939845 -0.00016694305 -0.00888649
0.011666732 0.0032906055 -9.715376e-05 -0.0035465183 -0.00061934296 -0.013513737 -9.715376e-05 -0.0035465183
0.0133789815 0.0039972463 0.0013027003 0.00709069 -0.0014448516 -0.012850603 0.0013027003 0.00709069
0.010348408 0.001631114 -0.0016332691 0.001431187 -0.00043667995 -0.00966584 -0.0016332691 0.001431187
0.013260199 0.0017461608 -0.0009436931 -0.005040816 -0.0007709698 -0.010113268 -0.0009436931 -0.005040816
0.013700562 0.0020637612 -0.0007766611 0.00022652686 -0.0009820543 -0.010254848 -0.0007766611 0.00022652686
0.011325388 -0.0076893573 0.008757137 0.0008146841 -0.2682439 0.049104642 -0.011219569 -0.002257973
-0.0010969201 0.010045573 -0.0039030523 -0.0013433998 -0.116566055 -0.010008711 0.003919291 0.0020443082
-0.013527002 0.01743946 -0.025787197 -0.006594574 0.37911993 0.03062169 0.025061084 0.008631176
0.012805519 -0.007554966 -0.0030226568 -0.0065549826 0.006791799 -0.01353223 -0.0030226568 -0.0065549826
0.016012436 -0.007421866 -0.006831043 -0.007913687 0.0068262024 -0.018283917 -0.006831043 -0.007913687
0.016947864 -0.007196443 -0.0038443357 -0.00020965577 0.0054086903 -0.01824879 -0.0038443357 -0.00020965577
0.005098231 0.011479467 -0.0016438311 0.0016718996 -0.0017546488 -0.0076803905 -0.0016438311 0.0016718996
0.0038168558 0.012127248 -0.0013842118 0.003971069 -0.0009233209 -0.006642741 -0.0013842118 0.003971069
0.0077431025 0.012514725 0.00028199508 -2.6475507e-05 -0.00036209592 -0.0065429867 0.00028199508 -2.6475507e-05
0.001106156 0.062108655 0.005769172 -0.01646557 -0.016765676 -0.07855494 -0.007829572 -0.005875997
0.00919504 0.05586991 -0.007381976 -0.014992563 -0.05374573 -0.17476556 0.01531958 -0.016293677
-0.080021426 0.06230244 0.016576959 -0.02286864 0.023934169 -0.21772316 -0.010272634 -0.013190637
-0.018308861 -0.04590711 0.011175435 -0.028942592 0.04579267 0.05972208 -0.0055530206 -0.022769133
0.015102926 -0.056074265 0.030180825 0.01776077 -0.022903478 0.009334302 -0.02296131 0.01622219
00000000: 0c55 d83b 61b6 3e39 b73f 65ba 2002 0ebb
00000010: 1107 433a 6f6e a1ba b73f 65ba 2002 0ebb
00000020: 743c 013c 6000 6439 2587 71ba 628a 27b9
00000030: 8b27 af39 a839 83ba 1787 71ba 628a 27b9
00000040: 2d8d 093c 0a69 8239 530e 8fb9 5951 923a
00000050: 5d95 5e3a 984e a2ba 530e 8fb9 5951 923a
00000060: 987a 4d3c 65f8 aa3a ffa5 d7b9 1982 353b
00000070: 4df1 233b 9f48 b5bb 6dbe d7b9 1982 353b
00000080: eec8 603c 9bab a63a 27cf b9ba 1e65 8a3a
00000090: d6de ef3a bc51 bdbb a3ca b9ba 1e65 8a3a
000000a0: 7ef8 673c d7d2 963a daf5 03ba 01d9 08bb
000000b0: 8233 a03a 578e c2bb 15fb 03ba 01d9 08bb
000000c0: f28f f83b f5a2 8e3b a298 323a 8855 8dba
000000d0: 127e 97bb 2f60 21bc a298 323a 8855 8dba
000000e0: f832 6b3c 4488 c83b 0bf5 703a f189 ff3b
000000f0: 9a0e 2bbb a018 13bc 0bf5 703a f189 ff3b
00000100: a57c 843c 2e95 de3b 6bda 3dbb 1851 703b
00000110: 8549 3cbb 03ee 02bc 6bda 3dbb 1851 703b
00000120: 7822 4f3c cef6 d43b f3dc 8ebc e133 933b
00000130: 487a 2dbd e84b 5abd 92f8 343c 99a0 963b
00000140: 1f02 353c 3e4e 9f3b 79d0 eebb fc90 21bc
00000150: e0fd 0e3c 5641 80bd 11b7 613b cca3 26bc
00000160: 15e9 ee3c d38d 273b c990 513c b9a3 e03b
00000170: 9983 903d b54f 23bd 06ae 9ebc 1b79 f03b
00000180: b8dc 3a3c 2d63 413b 6f0d 2fb9 a498 11bc
00000190: 263e 8f3a 1d20 34bc 6f0d 2fb9 a498 11bc
000001a0: d225 3f3c 33a7 573b 07bf cbb8 b46c 68bb
000001b0: 675b 22ba b968 5dbc 07bf cbb8 b46c 68bb
000001c0: 8433 5b3c 55fb 823b 5ebf aa3a 0559 e83b
000001d0: 2d61 bdba 568b 52bc 5ebf aa3a 0559 e83b
000001e0: 5e8c 293c 1bcb d53a 6b13 d6ba ab96 bb3a
000001f0: 31f2 e4b9 795d 1ebc 6b13 d6ba ab96 bb3a
00000200: 4e41 593c 6fdf e43a 2c62 77ba 6e2d a5bb
00000210: e81a 4aba 1fb2 25bc 2c62 77ba 6e2d a5bb
00000220: 5278 603c 2b40 073b d898 4bba d787 6d39
00000230: 46b8 80ba f303 28bc d898 4bba d787 6d39
00000240: 1f8e 393c 01f7 fbbb 187a 0f3c 8690 553a
00000250: 4457 89be f321 493d 48d2 37bc 80fa 13bb
00000260: 88c6 8fba 3096 243c 5aca 7fbb 0415 b0ba
00000270: 2fba eebd 94fb 23bc 656d 803b cdf9 053b
00000280: 5ca0 5dbc 33dd 8e3c ac3f d3bc 4c17 d8bb
00000290: 021c c23e 57da fa3c e74c cd3c c769 0d3c
000002a0: 3dce 513c a68f f7bb c417 46bb 2ecb d6bb
000002b0: bd8d de3b 49b6 5dbc c417 46bb 2ecb d6bb
000002c0: 832c 833c 2033 f3bb f1d6 dfbb 69a8 01bc
000002d0: 56ae df3b 27c8 95bc f1d6 dfbb 69a8 01bc
000002e0: 3fd6 8a3c 24d0 ebbb 40f1 7bbb 0bd7 5bb9
000002f0: 623b b13b 7d7e 95bc 40f1 7bbb 0bd7 5bb9
00000300: 100f a73b 6014 3c3c d275 d7ba a423 db3a
00000310: 3efc e5ba c9ab fbbb d275 d7ba a423 db3a
00000320: 3724 7a3b 5db1 463c 716e b5ba be1f 823b
00000330: 040b 72ba 5aab d9bb 716e b5ba be1f 823b
00000340: dab9 fd3b 900a 4d3c bdd8 9339 b817 deb7
00000350: b1d7 bdb9 8d66 d6bb bdd8 9339 b817 deb7
00000360: 70fc 903a a565 7e3d 530b bd3b cee2 86bc
00000370: 2c58 89bc 6ae1 a0bd 9b47 00bc 6f8b c0bb
00000380: cba6 163c d9d7 643d 81e4 f1bb 5ea3 75bc
00000390: 7c24 5cbd bef5 32be fafe 7a3c 517a 85bc
000003a0: 46e2 a3bd d830 7f3d 67cc 873c 0457 bbbc
000003b0: 9711 c43c d2f2 5ebe 8d4e 28bc 8b1d 58bc
000003c0: 77fc 95bc 1809 3cbd 2c19 373c 0419 edbc
000003d0: 1891 3b3d 249f 743d 1df6 b5bb 5586 babc
000003e0: 4372 773c 21ae 65bd c73d f73c 097f 913c
000003f0: 13a0 bbbc e6ee 183c 5b19 bcbc 66e4 843c

layers.0.bias f4 [400]
-0.00020728829 -0.0028044763 -0.00921415 -0.016239049 -0.0054627913 -0.0052650957 0.021983277 -0.004408154
-0.0036066994 -0.017029412 -0.034666657 -0.0016588065 -0.0025017832 -0.007702513 -0.00036360798 -0.004699406
0.012035238 -0.006721366 -0.013423058 -0.0072591384 -0.005053312 0.018971497 0.02007946 -0.007888498
-0.13126911 -0.010451287 -0.007913626 -0.0056629595 -0.0067769946 -0.0014335156 -0.043157753 -0.002559097
-0.0031621496 -0.0074811685 -0.0030868154 -0.004634156 -0.0049969587 -0.0046489327 -0.0071786703 -0.0033976939
-0.22850434 -0.009465145 -0.0025290872 -0.006851351 -0.005979484 -0.033548433 -0.0028134384 -0.0036973327
-0.006909298 -0.044048674 -0.002931996 -0.0075661195 -0.009010908 -0.0042801253 -0.0070521045 -0.000694006
-0.0068857186 -0.0074408115 -0.006204247 -0.009058875 -0.004593567 -0.0026415524 -0.007836334 -0.00333499
-0.00080828066 -0.0043681036 -0.0035715618 -0.00042383577 -0.004840012 -0.005790203 -0.009607928 0.006328712
-0.0027104 -0.0077649215 -0.009455626 -0.0039206645 -0.005197123 -0.045182586 -0.011156898 -0.0032698847
-0.0035323827 -0.0004795685 -0.0056242687 -0.0066829543 -0.0041801687 -0.004250441 -0.00411266 -0.0043193996
-0.008982713 -0.006830427 -0.0041954336 -0.0071014175 -0.07800336 -0.0029920633 -0.047869794 -0.0030380003
-0.049885258 -0.002334187 -0.008828776 -0.0072337803 -0.006973942 0.10889429 -0.0006533481 -0.025533484
0.006640773 -0.0042833644 -0.0059676007 -0.004218175 -0.0119722355 -0.0014949719 -0.0071508493 -0.005511143
-0.005332004 -0.005208806 -0.0034261942 0.16193154 -0.0040602777 -0.0048105447 -0.00011713392 -0.008957503
-0.0063921073 0.004876942 -0.0015403647 -0.0042336546 -0.0064969566 -0.008934603 -0.003977044 -0.0007034258
-0.008440309 -0.003657918 -0.0045039128 -0.010532343 -0.006500171 -0.0026999258 -0.0071858806 -0.005126692
-0.0010819776 -0.010591893 -0.005730625 0.17845005 -0.000112756665 -0.005766828 -0.10284134 -0.0070583653
-0.00442476 -0.0068377666 -0.0032666728 0.03586396 -0.0043526036 -0.0026700092 -0.008071583 -0.00018864221
-0.006625215 -0.0075113405 -0.0049055354 -0.011735783 -0.00987226 -0.002160396 -0.0046154317 -0.0018460948
0.14731455 -0.008410243 -0.00918409 -0.006299849 -0.0054084873 -0.07982451 -0.010454532 -0.008124403
-0.0002523367 0.04859633 -0.0087996265 -0.00021493612 -0.005395569 -0.007676791 -0.16756167 -0.0030173732
-0.21221608 -0.07432874 -0.0035088921 -0.066507764 -2.2275317e-06 -0.010006518 -0.008239467 -0.00938582
-0.0069456324 -0.0005897244 0.0001891017 -0.008750997 -0.0032035375 -0.008835226 -0.004195068 -0.0007530258
-0.0009290538 -0.009660585 -0.014583066 -0.004054343 -0.0013144346 -0.005936893 -0.008564137 -0.005080103
-0.0020540217 -0.010336168 -0.0067794817 -0.0050058393 -0.0027539372 -0.003762406 -0.003808068 -0.0068546655
-0.0051306826 -0.0076132026 -0.007476706 -0.0020953945 -0.011243766 -0.00694179 -0.0038853895 -0.005104654
-0.0059124297 -0.0032731139 -0.0031173832 -0.009778066 -0.07704058 -0.009193182 -0.0037520018 -0.0077872053
-0.008666139 -0.0044384333 -0.0061435224 -0.0048308573 -0.006182054 -0.0035351128 -0.006482241 -0.3481692
-0.004497426 -0.007224798 -0.08437548 -0.008161754 -0.015608146 -0.003049968 0.32513767 -0.009056915
-0.004772198 -0.00040730034 -0.04811533 0.032150716 0.0046183723 -0.009664488 -0.0021537775 0.08718596
-0.010560944 -0.005159357 -0.0077230334 -0.0006036182 -0.0068825786 -0.002890016 -0.080433056 -0.0054494226
00000000: 875b 59b9 4ecb 37bb f2f6 16bc c107 85bc
00000010: 3701 b3bb d386 acbb 4616 b43c 4772 90bb
00000020: 605e 6cbb 4481 8bbc a0fe 0dbd 4f6c d9ba
00000030: f5f4 23bb 5d65 fcbb a3a2 beb9 7afd 99bb
00000040: 722f 453c e83e dcbb 63ec 5bbc 11de edbb
00000050: 4196 a5bb 1d6a 9b3c ae7d a43c c23e 01bc
00000060: 696b 06be e03b 2bbc 27a8 01bc 5990 b9bb
00000070: 8d11 debb cde4 bbba 2fc6 30bd 86b6 27bb
00000080: 113c 4fbb 9724 f5bb 2b4c 4abb 1eda 97bb
00000090: 87bd a3bb 1356 98bb 0d3b ebbb d8ab 5ebb
000000a0: 0bfd 69be b213 1bbc 0bbf 25bb 4c81 e0bb
000000b0: 8cef c3bb 156a 09bd aa61 38bb f34e 72bb
000000c0: 6467 e2bb 626c 34bd bb26 40bb 36ed f7bb
000000d0: 7da2 13bc 4b40 8cbb 5715 e7bb f4ed 35ba
000000e0: 98a1 e1bb 0dd2 f3bb ff4c cbbb ad6b 14bc
000000f0: a285 96bb e51d 2dbb f863 00bc d98f 5abb
00000100: cce2 53ba 4f22 8fbb dd10 6abb 4636 deb9
00000110: f798 9ebb bebb bdbb 926a 1dbc 1661 cf3b
00000120: f7a0 31bb e270 febb c5eb 1abc eb78 80bb
00000130: a14c aabb 6011 39bd 6ccb 36bc 904b 56bb
00000140: 8c7f 67bb 986e fbb9 c94b b8bb affc dabb
00000150: ccf9 88bb 4947 8bbb 7ec3 86bb c089 8dbb
00000160: 3b2c 13bc c6d1 dfbb d979 89bb 02b3 e8bb
00000170: 3ac0 9fbd 7e16 44bb 1e13 44bd 3019 47bb
00000180: 7c54 4cbd 29f9 18bb 92a6 10bc 5909 edbb
00000190: aa85 e4bb f803 df3d 7345 2bba 992b d1bc
000001a0: d79a d93b 775b 8cbb dd8b c3bb 9e38 8abb
000001b0: 3227 44bc eff2 c3ba ac51 eabb d196 b4bb
000001c0: 17b8 aebb a2ae aabb 008a 60bb 62d1 253e
000001d0: 140c 85bb c6a1 9dbb cba5 f5b8 7ec2 12bc
000001e0: e274 d1bb c1ce 9f3b 10e6 c9ba 78ba 8abb
000001f0: 6ce4 d4bb 7162 12bc dd51 82bb 1b66 38ba
00000200: 3949 0abc aeb9 6fbb 8f95 93bb d98f 2cbc
00000210: 63ff d4bb 3df1 30bb 8977 ebbb cffd a7bb
00000220: 25d1 8dba 9f89 2dbc f7c7 bbbb 9cbb 363e
00000230: c677 ecb8 a9f7 bcbb 7b9e d2bd dc49 e7bb
00000240: 94fd 90bb 580f e0bb ad15 56bb 16e6 123d
00000250: 49a0 8ebb 52fb 2ebb ac3e 04bc 42ce 45b9
00000260: 5518 d9bb b121 f6bb 9dbe a0bb 7147 40bc
00000270: 42bf 21bc 6e95 0dbb 0c3d 97bb aaf8 f1ba
00000280: a0d9 163e 1ecb 09bc de78 16bc f76e cebb
00000290: ae39 b1bb 087b a3bd 7c49 2bbc 371c 05bc
000002a0: 0f4c 84b9 f20c 473d 4f2c 10bc 7a60 61b9
000002b0: 50cd b0bb 978d fbbb 4995 2bbe 1fbf 45bb
000002c0: 2c4f 59be ab39 98bd 71f5 65bb 3935 88bd
000002d0: b47c 15b6 61f2 23bc d4fe 06bc fbc6 19bc
000002e0: 3098 e3bb bc97 1aba 9a49 4639 5760 0fbc
000002f0: 71f2 51bb a0c1 10bc c876 89bb b566 45ba
00000300: bf8b 73ba 6e47 1ebc d0ed 6ebc 4bda 84bb
00000310: 1b49 acba 458a c2bb 9850 0cbc fe76 a6bb
00000320: c49c 06bb 0859 29bc 6a26 debb 0608 a4bb
00000330: 667b 34bb b392 76bb c890 79bb 1a9d e0bb
00000340: 491f a8bb 2c78 f9bb 28ff f4bb e352 09bb
00000350: c637 38bc f577 e3bb 05a2 7ebb f144 a7bb
00000360: 0ebd c1bb bd81 56bb 034d 4cbb 2e34 20bc
00000370: 74c7 9dbd 009f 16bc 25e4 75bb d02b ffbb
00000380: 6cfc 0dbc 4770 91bb 9a4f c9bb 2b4c 9ebb
00000390: d492 cabb 5aad 67bb fb68 d4bb 3c43 b2be
000003a0: 255f 93bb 00be ecbb 0dcd acbd e1b8 05bc
000003b0: 4fb9 7fbc f9e1 47bb 7278 a63e 7463 14bc
000003c0: 1960 9cbb ed8a d5b9 9514 45bd 78b0 033d
000003d0: b755 973b cd57 1ebc 6426 0dbb 8d8e b23d
000003e0: cf07 2dbc d30f a9bb 8011 fdbb 223c 1eba
000003f0: 4187 e1bb 6c66 3dbb 16ba a4bd 1291 b2bb

layers.1.weight f4 [300, 402]
-4.4549935e-07 0.00056752376 0.0029407777 0.0011622701 0.0030946156 -0.00074794516 -0.036929302 -0.000117293486
0.0022552526 -0.0345795 0.042426478 0.0016245161 -0.012398299 0.003152524 0.0007065664 0.0029672086
-0.035583485 0.0034659712 0.014487738 0.004120796 -0.0011065047 -0.0002938273 0.03513367 0.004960528
0.00057177694 -0.00017463556 -0.0007395431 0.00068882573 0.0007431355 -0.0010478265 0.0012831521 0.00076586864
0.006525258 -0.0015983623 -0.00019405741 -0.0015350078 0.0023789036 0.008255236 -0.0016396431 -0.00020422103
-0.010281708 0.0066618714 0.0037690678 0.002627768 -0.0018271783 0.006925164 -0.00087693596 -0.0007159295
0.0016386817 -0.021528052 -1.6077614e-05 0.0039530066 0.0013104219 0.0026187375 -0.0030865588 -9.3321054e-05
0.0023703575 -0.0055535124 0.00078553765 0.005911051 0.00074636226 0.000332666 -0.003888085 0.0021653115
3.4169746e-06 0.0002107568 -0.0022379786 -0.0005786116 0.00025379827 0.004727362 -0.0013246664 -0.024489105
-0.0005103853 -0.0031021007 -0.0021066263 0.00094443484 -0.0008147777 -0.016972218 0.0009510762 -0.004586236
-0.0010006924 7.85726e-05 0.0030862812 -0.0005133375 1.43894595e-05 -0.0023049824 -0.0011381009 0.0045886864
0.007201839 0.00025381305 0.0002998535 -0.002572848 -0.034741025 -0.00072212494 -0.0013216495 0.019106142
0.08123207 -0.010774446 0.000792028 -0.0024518156 5.6573637e-05 0.009102257 7.861457e-06 -0.048503045
-0.0033336312 -0.0010854441 -0.0033678317 -0.00025879216 0.031259242 -0.0018028065 0.0035070165 -0.0066804453
0.0010818075 -0.00064223923 0.0019490593 0.0058848667 -3.3068554e-05 0.0061999606 0.00028678347 0.0007685585
0.00044039538 0.008996879 -0.00030472508 0.0034405934 -0.001145479 0.0015716216 0.003909993 0.0010826748
-0.0018178711 0.0002804947 0.0021792483 0.00091862184 -0.002173804 -0.0014383873 -0.0004765276 0.001515869
-8.8842546e-29 -0.0025187596 -0.00043022665 -0.009801122 0.00011089893 0.0039836257 0.015807519 -2.926113e-06
-0.00010164887 0.00037680962 -0.0035909675 -0.0023986984 -0.0012875677 0.020799324 0.00525272 0.042460624
0.00031494652 0.00041311685 -0.0019671866 -0.0009398401 0.00079497835 0.006231478 0.020669308 0.00037715986
-0.023551775 0.0010788449 -0.0018532936 0.0009433678 0.004826458 -0.06464311 -0.00038841966 -0.0074275644
0.00020601354 0.0014261438 0.01054497 0.00030489822 -9.8830336e-05 -0.004861453 0.001962623 0.00013163759
-0.018607005 -0.019469291 9.383679e-14 0.0582129 -8.6749174e-07 -0.0010598176 0.003562245 0.00266855
0.007690636 -0.00039628986 0.0057265307 -0.01075685 0.000588392 0.0047016367 -0.002519007 -0.00023846005
0.0024022902 0.000638508 -0.026120994 0.0033140152 -0.0014405735 -0.0006890766 0.0023009093 -0.0023641689
-0.00054233323 0.0017775904 -0.0011559108 0.0041020056 1.2787611e-05 0.00079623645 -0.00010960205 0.0028378083
-0.00071230833 -1.3445793e-08 0.004312245 -0.0015175297 0.0037290181 0.0033048098 0.00075148937 5.4733213e-05
-0.0026802015 -0.002595542 0.0025091688 0.0024282534 0.049641408 -6.262384e-05 0.000678128 -0.002308612
0.008596238 -0.00816048 -2.3850876e-05 -0.005324888 -0.0002742768 -0.00010141576 -0.0005147876 0.014808861
-0.0065608425 0.0024172356 3.7773782e-07 -0.0004239696 0.0032511493 0.001070416 -0.051029272 0.0079800775
-0.00014845926 0.0011340638 -0.009297431 0.008108534 0.102995 -0.003751277 0.00014665969 -0.036811132
-0.0017395926 0.009423058 0.00573963 0.0040955176 0.0015735772 -0.0011825361 -0.008815754 0.0018272467
00000000: f72c efb4 e0c5 143a 10ba 403b 5057 983a
00000010: 09cf 4a3b c011 44ba 2e43 17bd 76fb f5b8
00000020: dccc 133b 3ca3 0dbd 63c7 2d3d b7ed d43a
00000030: 3c22 4bbc 939a 4e3b de38 393a 8075 423b
00000040: fdbf 11bd 5925 633b fa5d 6d3c be07 873b
00000050: 2308 91ba d50c 9ab9 53e8 0f3d ed8b a23b
00000060: 4de3 153a 601e 37b9 e6dd 41ba 5092 343a
00000070: fbce 423a 3957 89ba 712f a83a 93c4 483a
00000080: d5d1 d53b 2480 d1ba e47b 4bb9 5132 c9ba
00000090: 61e7 1b3b f840 073c 4be9 d6ba 2a24 56b9
000000a0: 9c74 28bc d44b da3b 7702 773b a236 2c3b
000000b0: ee7d efba 7cec e23b 2de2 65ba 37ad 3bba
000000c0: 09c9 d63a 995b b0bc 6ade 86b7 3988 813b
000000d0: 76c2 ab3a 209f 2b3b dd47 4abb 5cb5 c3b8
000000e0: 0058 1b3b 3dfa b5bb 8aec 4d3a 7db1 c13b
000000f0: 86a7 433a ad69 ae39 3ecf 7ebb e6e7 0d3b
00000100: 2d4f 6536 99fe 5c39 0dab 12bb f8ad 17ba
00000110: 3a10 8539 fde7 9a3b 6ea0 adba 609d c8bc
00000120: 61cb 05ba 9d4c 4bbb 530f 0abb f393 773a
00000130: ce96 55ba 5209 8bbc a551 793a 2348 96bb
00000140: aa29 83ba 58c7 a438 3543 4a3b 7f91 06ba
00000150: 426a 7137 300f 17bb 542c 95ba b15c 963b
00000160: 67fd eb3b 3612 8539 a835 9d39 3a9d 28bb
00000170: 9b4c 0ebd fc4c 3dba 333b adba 7c84 9c3c
00000180: 005d a63d 4d87 30bc 19a0 4f3a a4ae 20bb
00000190: 7b49 6d38 a221 153c b3e4 0337 21ab 46bd
000001a0: 0d79 5abb 7645 8eba d7b6 5cbb 7fae 87b9
000001b0: b109 003d 264c ecba f9d5 653b a3e7 dabb
000001c0: 70cb 8d3a f25b 28ba 9477 ff3a d7d5 c03b
000001d0: 17b3 0ab8 0a29 cb3b 6d5b 9639 1679 493a
000001e0: dee4 e639 a567 133c 82c3 9fb9 947b 613b
000001f0: e623 96ba dffe cd3a 661f 803b 8ae8 8d3a
00000200: a245 eeba 5d0f 9339 b8d1 0e3b abcf 703a
00000210: 6176 0ebb 4588 bcba 74d6 f9b9 20b0 c63a
00000220: 1c3e e190 c611 25bb 0b90 e1b9 e394 20bc
00000230: 6992 e838 1389 823b c57e 813c 3d5e 44b6
00000240: 522c d5b8 888e c539 7056 6bbb 7b33 1dbb
00000250: 9ac3 a8ba 5863 aa3c 021f ac3b 31eb 2d3d
00000260: 681f a539 9b97 d839 eaeb 00bb 9a5f 76ba
00000270: 1866 503a 6d31 cc3b ae52 a93c 8abd c539
00000280: a7ef c0bc 0768 8d3a 37ea f2ba 574c 773a
00000290: 4427 9e3b 9b63 84bd cea4 cbb9 ed62 f3bb
000002a0: 5705 5839 72ed ba3a cfc4 2c3c bfda 9f39
000002b0: 2243 cfb8 d34c 9fbb 5a9f 003b 3208 0a39
000002c0: b86d 98bc 107e 9fbc 3a4d d329 a670 6e3d
000002d0: 94dd 68b5 94e9 8aba 8e74 693b d7e2 2e3b
000002e0: bb01 fc3b 20c5 cfb9 9fa5 bb3b 803d 30bc
000002f0: 523e 1a3a 3010 9a3b ed15 25bb 220b 7ab9
00000300: be6f 1d3b 8c61 273a b2fb d5bc f32f 593b
00000310: a0d1 bcba 26a3 34ba daca 163b 2cf0 1abb
00000320: 5e2b 0eba 09fe e83a ee81 97ba 1e6a 863b
00000330: 5f8a 5637 86ba 503a 27da e5b8 86fa 393b
00000340: 34ba 3aba 39ff 66b2 bc4d 8d3b d9e7 c6ba
00000350: 8b62 743b 8295 583b 99ff 443a 5791 6538
00000360: 52a6 2fbb f819 2abb de70 243b 5523 1f3b
00000370: ca54 4b3d eb54 83b8 66c4 313a 154c 17bb
00000380: 3cd7 0c3c 89b3 05bc 5e13 c8b7 667c aebb
00000390: cfcc 8fb9 2caf d4b8 d0f2 06ba dda0 723c
000003a0: 56fc d6bb 7c6a 1e3b e4cb ca34 3d48 deb9
000003b0: 3c11 553b 334d 8c3a 1204 51bd dfbe 023c
000003c0: bbab 1bb9 dea4 943a 4154 18bc a8d9 043c
000003d0: 0bef d23d fcd7 75bb a9c8 1939 45c7 16bd
000003e0: 0b03 e4ba 2b63 1a3c 8213 bc3b b133 863b
000003f0: 7d40 ce3a 54ff 9aba f46f 10bc 3a80 ef3a

layers.1.bias f4 [300]
-0.08456637 -0.00014176557 -0.0015854521 -0.0009950768 -1.6684915e-05 -0.00055876333 0.007907562 -3.898785e-07
0.015262048 -0.0019346562 -2.1734557e-11 -0.0051813256 1.1351855e-37 0.06732217 -0.31733218 -3.342719e-39
-0.11538976 -2.5218942e-16 -0.0002476482 -7.94659e-20 -8.4969275e-18 -0.00022061935 -0.0014548543 -5.751665e-10
-0.06449474 -3.7994196e-06 -0.00064729195 -0.00040042613 -0.003009321 -3.7200488e-07 -1.2648834e-06 -0.0044877296
-7.887604e-13 0.06500512 -0.004352817 -0.06806967 -2.1510613e-07 -2.7004763e-15 -2.3573705e-07 -5.765259e-10
-1.9874363e-17 -0.0019588806 -0.0015355018 0.15475518 -0.0019218974 -0.0020340679 -0.004361517 -0.0021708638
-0.00011995345 -3.2852296e-15 -0.000691636 -6.501407e-05 -0.0023413603 -0.002018518 -2.3640627e-05 -0.0035187644
-4.4177154e-06 -0.0008750495 -0.0005800184 -0.0006496849 0.10886266 -5.4754066e-12 -1.6619266e-28 -1.3674675e-05
-3.7629714e-05 -0.00483496 -0.0014410944 -0.08682687 -2.1118937e-14 -0.0041619297 0.003922211 -5.228207e-06
-2.6126432e-07 -1.3793687e-05 -1.0844758e-15 4.310849e-34 -0.07252286 -0.0027849376 -1.766272e-29 -0.0031133653
-8.026658e-12 0.18309209 -0.00030440124 -0.08546691 -1.2351778e-06 -0.057502057 -0.004321067 -7.468385e-10
-0.0062722485 -0.0007587388 -0.0035376549 -0.00027215865 -0.0039087795 -0.3839377 0.020456666 -0.111940525
-0.0052535385 -9.947306e-05 -1.517838e-11 -4.977002e-05 -3.4944956e-16 -0.004516587 -0.0018446336 -0.0034046248
-0.0005909707 -0.00552831 -0.0014808715 -5.3250503e-13 -9.0531255e-05 -3.5624232e-28 -3.2077217e-33 -0.0004894253
-1.26785235e-05 -0.00022338338 -0.006355684 -0.021128634 -0.0029144944 -0.004540256 0.2788182 -0.00013826563
-1.0076091e-09 -0.00024345196 -0.00195063 -0.00598215 -9.102678e-06 -2.5870289e-08 0.018769331 -0.0033136245
-3.5865443e-05 -0.0008015332 -5.9843543e-09 -2.055999e-05 -0.0019433374 -0.0029878358 -0.009215801 -1.2232868e-05
-0.0018263602 -2.825227e-05 2.3225729e-38 -0.00025208856 0.08494287 -0.0017174213 -0.049582426 -0.003553875
-3.5526755e-05 -0.045405257 -2.8332877e-07 -0.0050919955 -0.0010630388 -7.4463564e-08 -0.0022445254 -2.5450708e-15
-3.9095463e-07 -1.3635459e-09 2.2052748e-36 -1.1984791e-10 -0.0012178571 0.03579837 -0.0042105927 -7.93494e-05
-0.0027483755 -0.40038547 -6.4698884e-07 -0.002680099 0.041179888 -9.197724e-05 -0.0007441276 -1.5253577e-09
-0.002073855 -0.00017884522 -0.00040294311 -0.00049226696 -0.001803912 -6.0034355e-14 -1.192528e-12 -0.0010178512
-8.511847e-25 0.12819405 -0.046590526 -0.0010569374 1.881904e-38 -0.00077280926 -3.1874252e-22 0.06588874
-0.0054117204 -0.02395179 -1.9251647e-05 -8.715835e-05 -1.269047e-10 -3.7036694e-05 -1.2023882e-24 -2.63683e-12
-0.00023961526 -0.0021605843 0.10417885 -0.047504645 -1.1686193e-06 -1.9364664e-12 -5.5607557e-05 -0.0032481737
-0.00427423 0.07494334 -0.0027516927 -0.0009433593 -0.0003017445 -4.561254e-06 -0.0072041815 -0.056046106
-2.7645638e-07 -0.0024572837 -0.0046536056 -0.0052233497 -0.0012735222 -0.032535385 0.008671753 -0.0016999346
-2.322343e-06 -4.415155e-06 -0.0007132154 -3.2516473e-10 -0.007756853 -7.5792195e-06 -6.149124e-25 -6.021865e-38
-0.06453939 -9.159079e-19 -0.0013539201 -3.0074905e-06 -0.312551 -0.034023847 -9.6946e-15 -0.002697431
-3.3752446e-08 -0.00044635814 -0.00011708112 -0.00070915517 -0.0042265714 -0.0031020504 -4.9472163e-07 0.06498264
-0.044325408 -0.0019826482 -3.9498244e-14 6.640933e-39 -0.0007018596 -5.2894884e-09 -0.0013231613 -6.877844e-11
-0.02261496 0.19223312 -6.775755e-05 -6.2252036e-07 -0.0016980711 -2.1110652e-07 -3.2098406e-08 -0.00011228242
00000000: 2231 adbd e8a6 14b9 f2ce cfba 3d6d 82ba
00000010: 95f6 8bb7 f979 12ba b88e 013c 7e50 d1b4
00000020: ab0d 7a3c 4a94 fdba df2d bfad 1cc8 a9bb
00000030: 7183 1a02 35e0 893d 5d79 a2be 2466 2480
00000040: 7751 ecbd 9760 91a5 c7d6 81b9 30a2 bb9f
00000050: 9bbd 1ca3 0e56 67b9 cfb0 beba bf19 1eb0
00000060: d115 84bd 88f9 7eb6 07af 29ba 49f0 d1b9
00000070: 0738 45bb f6b7 c7b4 10c5 a9b5 ce0d 93bb
00000080: 2d04 5eab 6821 853d 13a2 8ebb 1c68 8bbd
00000090: ecf7 66b4 ff96 42a7 e81e 7db4 6779 1eb0
000000a0: 034f b7a3 9060 00bb e442 c9ba 2478 1e3e
000000b0: 2de8 fbba ff4d 05bb 0eeb 8ebb 0d45 0ebb
000000c0: 858f fbb8 cab9 6ca7 e84e 35ba 2a58 88b8
000000d0: 8271 19bb 1d49 04bb dc4f c6b7 129b 66bb
000000e0: e33b 94b6 9463 65ba 600c 18ba 9e4f 2aba
000000f0: 63f3 de3d 14a6 c0ac 9aac 5291 486c 65b7
00000100: 99d4 1db8 966e 9ebb 1be3 bcba 49d2 b1bd
00000110: f438 bea8 cc60 88bb e485 803b f56d afb6
00000120: e543 8cb4 6f6b 67b7 184a 9ca6 a640 0f08
00000130: dd86 94bd 8083 36bb 0b1f b38f 9a09 4cbb
00000140: db34 0dad 7e7c 3b3e 0b98 9fb9 4609 afbd
00000150: 63c8 a5b5 4787 6bbd bd97 8dbb 164a 4db0
00000160: 6f87 cdbb 19e6 46ba 00d8 67bb 84b0 8eb9
00000170: 3815 80bb 7b93 c4be bd94 a73c 1341 e5bd
00000180: e025 acbb 319c d0b8 ac82 85ad 27c0 50b8
00000190: a771 c9a5 e1ff 93bb a2c7 f1ba 2020 5fbb
000001a0: 5feb 1aba d326 b5bb cd19 c2ba 08e3 15ab
000001b0: 99db bdb8 9fcb e191 593e 8589 c74c 00ba
000001c0: d8b5 54b7 053c 6ab9 5743 d0bb f515 adbc
000001d0: 1a01 3fbb 6ec6 94bb 42c1 8e3e 66fb 10b9
000001e0: 187c 8ab0 2347 7fb9 48ac ffba e905 c4bb
000001f0: b4b7 18b7 5e39 deb2 24c2 993c 6529 59bb
00000200: 3a6e 16b8 fc1d 52ba f09e cdb1 3e78 acb7
00000210: 95b7 feba 91cf 43bb dffd 16bc c53b 4db7
00000220: 7b62 efba 4aff ecb7 e2e7 fc00 c12a 84b9
00000230: 87f6 ad3d 191b e1ba f116 4bbd 21e8 68bb
00000240: 9002 15b8 ddfa 39bd 691c 98b4 c1da a6bb
00000250: aa55 8bba c7e8 9fb3 e318 13bb 4564 37a7
00000260: 65e4 d1b4 8267 bbb0 a29a 3b04 30c6 03af
00000270: 81a0 9fba 50a1 123d 03f9 89bb 6268 a6b8
00000280: 171e 34bb 53ff ccbe bcac 2db5 9aa4 2fbb
00000290: 3eac 283d e8e3 c0b8 8f11 43ba c1a4 d1b0
000002a0: 83e9 07bb 6688 3bb9 1c42 d3b9 7a0b 01ba
000002b0: 3e71 ecba 732f 87a9 59d5 a7ab 6b69 85ba
000002c0: e6b6 8397 4d45 033e b5d5 3ebd ef88 8aba
000002d0: d4eb cc00 5a96 4aba 04ab c09b adf0 863d
000002e0: cd54 b1bb 8b36 c4bc 997e a1b7 c8c8 b6b8
000002f0: 7f88 0baf d957 1bb8 810f ba97 e88c 39ac
00000300: 3b41 7bb9 9798 0dbb b95b d53d 3b94 42bd
00000310: 74d9 9cb5 4744 08ac 293c 69b8 50df 54bb
00000320: d70e 8cbb e57b 993d be55 34bb c54b 77ba
00000330: 7633 9eb9 e00c 99b6 0e11 ecbb 9a90 65bd
00000340: e06b 94b4 610a 21bb 467d 98bb a228 abbb
00000350: 50ec a6ba d343 05bd f813 0e3c 57d0 deba
00000360: 8dd9 1bb6 e525 94b6 13f7 3aba dec2 b2af
00000370: 332d febb 0051 feb6 614e 3e97 46ee a381
00000380: 3a2d 84bd 062a 87a1 0576 b1ba 4bd4 49b6
00000390: af06 a0be 975c 0bbd 74a4 2ea8 62c7 30bb
000003a0: 35f7 10b3 2d05 eab9 7389 f5b8 99e6 39ba
000003b0: 0d7f 8abb c54b 4bbb 03cd 04b5 9e15 853d
000003c0: 8f8e 35bd 51ef 01bb 60e2 31a9 3850 4800
000003d0: 00fd 37ba d5be b5b1 ed6d adba d23e 97ae
000003e0: 0243 b9bc c2d8 443e 0f19 8eb8 461b 27b5
000003f0: d091 deba 85ac 62b4 92dc 09b3 2a79 ebb8

layers.2.weight f4 [1, 300]
0.16938934 0.0014083603 -0.00024360609 0.00064074126 0.0028280753 0.0015414399 -0.05503705 -6.9040943e-06
0.03159206 0.0016304106 -1.235039e-07 0.00029159823 1.0399024e-06 0.4292695 -0.22881559 -1.9497882e-05
0.33134043 -7.34271e-05 0.0002959742 -0.00035155186 -1.3879026e-05 -0.0003047063 -2.3715402e-05 -0.000926454
0.18267626 0.0003388482 0.0025169898 0.00039375204 -0.0026154777 -0.0028045056 0.0007454839 0.0009071978
-0.00028873043 -0.11717145 0.001173574 -0.2063631 -9.224497e-06 -8.617992e-06 -9.516273e-05 0.00028321758
-4.5297074e-05 -9.6853866e-05 1.2308763e-05 0.19733858 0.00052479684 0.0008234571 -0.00014695217 0.0001671516
0.00011610363 3.3595988e-08 -0.0009926064 -0.0004849615 0.00011945185 6.250352e-05 0.0007989517 0.0009118921
-0.00080603466 0.0005767058 -0.00039826694 -4.0071965e-05 -0.23172718 -7.238914e-05 -1.5795778e-05 2.5869107e-05
0.00014220086 0.004549828 -0.0002686302 -0.15353718 -4.1091635e-06 0.00086415344 -0.0020205514 -0.0011710705
0.0003937228 -0.00052153395 -8.182483e-05 -7.733532e-06 0.13883945 -0.0017993009 4.974901e-05 0.0011696349
6.8698587e-06 0.06956425 -0.00018034448 0.285791 -0.0002461057 -0.19756351 -0.0017405713 -4.260996e-06
-0.0010044163 0.0005922472 0.0026950277 -0.0014349481 0.0003695181 -0.23753214 -0.16208656 -0.24872933
0.0030853874 -0.00024492425 1.985545e-06 0.00021511881 0.000112659574 -0.0005332451 0.0018272795 -0.00010120343
-6.899049e-05 0.0022608135 -0.0005342524 -9.0571906e-05 -0.0009237442 2.2554495e-05 -1.614352e-05 -0.0013532483
4.0687122e-05 0.0007114529 0.00016914238 0.0146710565 8.2149745e-05 -0.0008672727 -0.23323989 -0.0012526509
-0.00059793016 0.00036481777 4.114842e-05 0.0015999278 0.00041607933 -4.1356707e-05 0.029209716 -7.2446266e-05
-0.0005928747 7.390775e-06 -9.780585e-05 -0.0008943095 -0.0004456527 0.0016402844 -0.28731534 -0.0016643074
0.0002949884 -6.754615e-05 -1.1376701e-05 -6.132015e-05 -0.17023726 -0.0005927024 0.22980697 -0.0005735424
6.55458e-06 -0.31787595 4.0935152e-05 0.0011832595 0.00060029683 -0.00060036517 -0.0009196549 5.4910113e-05
0.0010783857 6.611997e-06 -6.81733e-06 -7.722349e-05 -0.0001829005 -0.43316522 -0.0005192182 -3.9050764e-07
-0.00036116922 -0.17879684 -0.00022512308 0.0005261384 -0.13717219 0.0021672363 0.0013745186 -3.3166743e-06
-0.000371387 1.8360051e-05 0.00048548816 -5.868603e-05 -7.256868e-05 -0.00019980753 -0.0016995001 -0.0002981778
-8.310479e-05 -0.35332832 -0.08689687 -0.00066887075 3.838219e-08 0.00010879023 -3.609178e-05 -0.28228864
-0.00031355474 -0.0416936 0.00025543748 0.00016030476 -0.00047660246 -0.000501017 5.851764e-05 -0.0013405625
-0.0018237407 -0.0006790063 -0.067593925 -0.19818836 -6.1978244e-05 -0.00039089535 -6.416851e-05 -0.0008354214
0.00056813 0.033915795 -0.0010799145 0.003579106 0.000365244 -0.00011166683 -0.0026865967 -0.23540327
1.7264063e-07 -3.2538188e-07 -0.0018907846 -0.0011154409 -0.0018336347 -0.25041446 -0.063590154 -0.00053294626
-8.527858e-05 8.0337006e-05 -0.0001354005 5.887062e-05 0.0017422626 0.0001279679 -1.0822724e-08 -0.00010140652
-0.20434345 3.0968393e-05 -0.0002185327 -5.6845463e-05 -0.19206907 -0.26973087 5.9746826e-06 0.00014658082
-1.5944233e-05 -7.877827e-05 0.00015909152 0.00124905 3.950227e-05 -9.1915885e-05 -0.00045287062 0.15047984
-0.02672918 -0.0008114106 -6.8614454e-06 -1.8315308e-08 0.00057155837 2.3800767e-05 0.0008427275 -0.00016771827
-0.107670955 0.04379594 -0.0014654212 -5.2745752e-05 0.00082811184 -0.0011857804 -1.3789881e-06 -0.0010419565
00000000: 6674 2d3e bb98 b83a 8370 7fb9 6bf7 273a
00000010: 3b57 393b 240a ca3a 886e 61bd b8a9 e7b6
00000020: ad66 013d 80b3 d53a 7e9c 04b4 a7e1 9839
00000030: c692 8b35 36c9 db3e a24e 6abe 628f a3b7
00000040: 74a5 a93e e0fc 99b8 fc2c 9b39 7e50 b8b9
00000050: f6d9 68b7 fdc0 9fb9 70f0 c6b7 47dd 72ba
00000060: 7c0f 3b3e 6fa7 b139 15f4 243b 8170 ce39
00000070: 6f68 2bbb cccb 37bb 946c 433a 04d1 6d3a
00000080: be60 97b9 96f7 efbd 9cd2 993a d950 53be
00000090: eac2 1ab7 fe95 10b7 1a92 c7b8 d27c 9439
000000a0: 5dfd 3db8 061e cbb8 bc81 4e37 2013 4a3e
000000b0: 8592 093a 45dd 573a 2c17 1ab9 6a45 2f39
000000c0: a97c f338 2e4b 1033 581a 82ba 6e42 feb9
000000d0: 3982 fa38 5214 8338 be70 513a 0b0c 6f3a
000000e0: 124c 53ba 122e 173a 7cce d0b9 f212 28b8
000000f0: e449 6dbe a0cf 97b8 2d81 84b7 7c01 d937
00000100: c11b 1539 b916 953b efd6 8cb9 da38 1dbe
00000110: 72e1 89b6 5b88 623a 3a6b 04bb 9b7e 99ba
00000120: 946c ce39 8db7 08ba 5f99 abb8 44bf 01b7
00000130: ee2b 0e3e 85d6 ebba 98a9 5038 6f4e 993a
00000140: a383 e636 b477 8e3d da1a 3db9 3353 923e
00000150: bf07 81b9 174e 4abe e223 e4ba adf9 8eb6
00000160: 9ea6 83ba 0941 1b3a 109f 303b de14 bcba
00000170: e1bb c139 a03b 73be 05fa 25be e7b2 7ebe
00000180: 3634 4a3b 2d69 80b9 673f 0536 8491 6139
00000190: a643 ec38 79c9 0bba 5381 ef3a 2e3d d4b8
000001a0: fdae 90b8 282a 143b 120d 0cba 6cf1 bdb8
000001b0: 6d27 72ba 6933 bd37 f26b 87b7 7a5f b1ba
000001c0: 77a7 2a38 cc80 3a3a d05b 3139 df5e 703c
000001d0: cf47 ac38 b059 63ba 70d6 6ebe fd2f a4ba
000001e0: 6abe 1cba 0345 bf39 c896 2c38 abb4 d13a
000001f0: 3925 da39 6d76 2db8 3749 ef3c 4bee 97b8
00000200: 266b 1bba 46fe f736 1e1d cdb8 1870 6aba
00000210: 7ea6 e9b9 d0fe d63a ff1a 93be e424 daba
00000220: aca8 9a39 90a7 8db8 8fde 3eb7 0199 80b8
00000230: ad52 2ebe 965f 1bba 8552 6b3e c759 16ba
00000240: 6aef db36 a3c0 a2be c9b1 2b38 9a17 9b3a
00000250: 3d5d 1d3a d361 1dba ff14 71ba 494f 6638
00000260: 9f58 8d3a 9fdc dd36 6bc0 e4b6 0cf3 a1b8
00000270: fbc8 3fb9 d5c7 ddbe 251c 08ba f6a6 d1b4
00000280: 505b bdb9 8516 37be 040f 6cb9 8dec 093a
00000290: de76 0cbe 3108 0e3b 3129 b43a 0894 5eb6
000002a0: b8b6 c2b9 e903 9a37 1e89 fe39 a525 76b8
000002b0: 0330 98b8 6d83 51b9 c3c1 deba bf54 9cb9
000002c0: 8b48 aeb8 73e7 b4be fcf6 b1bd 2857 2fba
000002d0: aad9 2433 4f26 e438 4161 17b8 2388 90be
000002e0: 9b64 a4b9 e9c6 2abd 3dec 8539 7b17 2839
000002f0: 80e0 f9b9 af56 03ba d670 7538 d0b5 afba
00000300: 950a efba 57ff 31ba af6e 8abd e4f1 4abe
00000310: 51fa 81b8 16f1 ccb9 3592 86b8 2e00 5bba
00000320: 8fee 143a 4aeb 0a3d eb8b 8dba 6f8f 6a3b
00000330: 387e bf39 ac2e eab8 9d11 30bb 8e0d 71be
00000340: 185f 3934 25b0 aeb4 34d4 f7ba fc33 92ba
00000350: 9256 f0ba 5336 80be 8e3b 82bd 6bb5 0bba
00000360: 97d7 b2b8 9a7a a838 4cfa 0db9 d9eb 7638
00000370: a25c e43a 1f2f 0639 d8ee 39b2 36aa d4b8
00000380: 693f 51be 0fe4 0138 ed25 65b9 5a6d 6eb8
00000390: c1ad 44be 2a1a 8abe 227a c836 7db3 1939
000003a0: fbbf 85b7 c335 a5b8 ced1 2639 2ab7 a33a
000003b0: 3daf 2538 f7c2 c0b8 446f edb9 6317 1a3e
000003c0: 27f7 dabc d8b4 54ba 5e3b e6b6 ca53 9db2
000003d0: a2d4 153a c2a7 c737 7cea 5c3a 88dd 2fb9
000003e0: 9782 dcbd 5f63 333d 6013 c0ba 523b 5db8
000003f0: a515 593a 306c 9bba ac15 b9b5 4292 88ba
