checkpoint_actor0.pth (torch_old, 524671 bytes, 6 tensors)

layers.0.weight f4 [400, 24]
00000000: a6d3 9e3d c06c 86be dbb7 a23c 74b5 15bd
00000010: 1f54 18be f615 8d3e 5c17 cdb8 a671 8bbd
00000020: 2b7d ec3b ef46 b4be ded0 6dbc 309c 30be
00000030: 79f8 613c f3c1 f53d 4b53 2a3d 6e4a 10be
00000040: 0e95 5aba be00 f8be cf8c 91bc fb93 d1bd
00000050: 2d86 483e a937 10be 4887 2cbd 062c 01be
00000060: d0cd 493e 733e 473d 2521 5cbc 339f 1cbd
00000070: 99e8 b3bd 5aad 9fbe 0dd3 d2bc 2197 1c3d
00000080: e629 3d3e 58df c0bc 947d 2cbc a048 7fbd
00000090: 75e7 06be 2434 34bd ec7d 0cbc 8df9 b2bc
000000a0: 6067 9f3e 8533 97bd e52d 8c3c 5fd0 c33c
000000b0: 7a39 a8bd c250 4a3d 3442 16bd 4fc0 b33c
000000c0: 9a78 88bc c3c0 113f 0742 2dbc 14b4 8b3d
000000d0: da52 4abe bff1 0fbe d5e6 fa3c 5b38 3c3d
000000e0: 4049 9f3d 782c 123f bfed e93c 4cb6 ce3b
000000f0: 0310 8ebd 1604 9fbd 9237 f03b bbc0 c2bc
00000100: f740 693c a653 093f 0db9 d53c b7a1 733d
00000110: 149b 233e 40d7 babd f39a 4fba 6f8e 473c
00000120: b350 4c3e 3134 7d3d 12a7 69bc c2c1 153e
00000130: d065 ce3c f36f 9bbe 5352 1ebb 60e8 053e
00000140: 10be 5c3e 38c7 973d 1a32 56bd f04d ddbc
00000150: fc67 3c3d e299 4dbe 0247 003c ecd6 8ebc
00000160: e060 433e f260 293d 0d72 8fbc cfe0 88bd
00000170: 8853 c43d 3565 a1bd 7230 e63c 8503 e8bd
00000180: 2653 0f3e 339e af3c ba87 98bd b4db 8cbd
00000190: f44e 613e 2b2a 60bd 63e3 afbc 3202 9fbd
000001a0: 2f9e 033e aa56 c33c 1c19 00be 71ad a0bd
000001b0: 60c6 f43d b80f 1bbe aa36 d3bd 7b9c afbd
000001c0: 04fd 983d d984 2e3a 0cb5 e03c 74aa 97bd
000001d0: 3c35 c63c 9b6b 82be db5d b2bc c29f bebd
000001e0: 1d9c 253d 5360 1c3d 4a6f 0fbd 7881 af3c
000001f0: 2151 94be cad2 a5be 4922 fb3c f58b bb3b
00000200: e23f d93c 3d1a 913d b5fb 60bb fb9c 95bd
00000210: 2e0e 69bd be74 84be a126 e5bb 7ec6 adbd
00000220: 49bc 5e3d d20b e6bc 07d3 87bb 57c6 93bd
00000230: cdfc 983e d76a 613d 6f5e 3cbb 6b37 05be
00000240: 7a64 6c3e d928 ad3d 920b febc e151 a13c
00000250: fe09 ba3a 18b9 923d 50a5 a4bc 6398 21bd
00000260: 71d6 513e 4a5c 4abd 10c6 e1bb ae3a 1fbc
00000270: 54b0 72be 5b37 293e 0cc5 523c 9d2a c6bc
00000280: e189 483e c931 a4bd 67a5 f93c 9c06 48bd
00000290: 3e88 dabe 43ed 5a3e f259 f63a 90e8 65bd
000002a0: acb3 603e 1802 99bd 13d6 413c 4bc7 2d3e
000002b0: dd20 65bd ef8f cbbd e7da 263c 3df8 113e
000002c0: 823f 8b3e 2114 86bd b05b ae3c 1185 233e
000002d0: 58ca c7bc f2a6 a3bd 3052 e4bc 7b72 2a3e
000002e0: cee4 743e 27a2 b43c 87d8 29bd d9a6 d53c
000002f0: 23f4 c33d 92a8 d9bd bf5e a7ba 2b9b 813d
00000300: 4c95 693e 417d f23e a2dd 07bc b57d 47bd
00000310: 7b4a 45bd d68e f6bd 42e1 2ebc d129 52bd
00000320: a196 ee3d 99a6 963e dad8 093d 906c 4ebe
00000330: 6543 28be d723 093d 917b ab3c e279 3ebe
00000340: b94f 4f3e 31fa 313e 2406 3b3c 2fcf 26be
00000350: feba 60be 430e 443d aad0 943d eb5d 62be
00000360: 079f c53d f6c9 3ebd c2a9 483c 0f0b a63a
00000370: 4a42 b7bd a175 2fbd 66e6 55bd 213c 19bd
00000380: cbf4 573e 5dd1 43bd 6bf3 95bc a3ad 233d
00000390: b3b0 3b3e 7cbe 983c 4a0c 503b 9bfe ed39
000003a0: 667f 513e 13dc a2bd ad1a c43c 1123 db3d
000003b0: 6f52 0d3f c1cb 943b 3db1 483d ee28 a73c
000003c0: 5f5f 1c3e 4c69 843e c580 bdbb 74f6 82bc
000003d0: 9c62 e7bd c637 41be 2fb6 61bd 0806 953c
000003e0: fb0d 4c3e 66a5 593e 56f8 b9bc 0b33 11bd
000003f0: 19b8 3c3d 78c3 09be 9c2a 85bc 2252 9abd
0.077552125 -0.26254845 0.01986306 -0.03655 -0.1487584 0.27555817 -9.779513e-05 -0.06808786
0.0072170696 -0.35210368 -0.01451513 -0.17247081 0.013792151 0.119998835 0.04158334 -0.14090893
-0.0008338251 -0.48438066 -0.017767338 -0.10233303 0.19582434 -0.14083733 -0.0421212 -0.1261445
0.19707417 0.04864354 -0.013435637 -0.03823776 -0.08784599 -0.31186944 -0.025735402 0.038230065
0.18473014 -0.023543999 -0.010527987 -0.06232512 -0.13174231 -0.043995038 -0.008574944 -0.02184751
0.31133556 -0.073828734 0.017111728 0.02390307 -0.08214088 0.049393423 -0.03668423 0.021942286
-0.01665907 0.56934756 -0.010574824 0.068214566 -0.19758168 -0.14057063 0.030627647 0.045952182
0.07777643 0.57099104 0.028555749 0.0063083526 -0.06936648 -0.07764451 0.0073308432 -0.023773542
0.01423668 0.5364326 0.026089216 0.059480395 0.15977126 -0.09123087 -0.00079195126 0.012179955
0.1995266 0.06181735 -0.014261024 0.14624694 0.025195032 -0.30358848 -0.0024157956 0.13076925
0.21556878 0.07411045 -0.052293874 -0.027014703 0.045997605 -0.20078233 0.00782943 -0.017436467
0.19079924 0.04135222 -0.017510438 -0.06683504 0.09586245 -0.07880632 0.028099272 -0.11328796
0.13996562 0.02143774 -0.07447763 -0.068778425 0.22002774 -0.054727715 -0.021470731 -0.077640906
0.12853311 0.023845036 -0.12509578 -0.07845581 0.119518995 -0.15142715 -0.10313161 -0.08574768
0.07470134 0.0006657369 0.02743008 -0.07405558 0.024195306 -0.2547272 -0.02177327 -0.09307815
0.040432084 0.0381778 -0.035018243 0.02142404 -0.28968146 -0.32387382 0.030655997 0.0057234713
0.02651972 0.07085083 -0.0034329717 -0.07305332 -0.05689829 -0.25870317 -0.0069931303 -0.08485125
0.05437878 -0.028081808 -0.0041450295 -0.07215565 0.29880372 0.05503353 -0.002874281 -0.13009422
0.23085204 0.08455057 -0.031011377 0.019692363 0.0014193652 0.0716421 -0.020098358 -0.039451968
0.20491959 -0.04940442 -0.006890066 -0.00971858 -0.23700076 0.16525023 0.012864362 -0.024190241
0.19583847 -0.08017308 0.030474378 -0.04883443 -0.4268207 0.2137957 0.0018795116 -0.056129992
0.2194354 -0.074711025 0.011830824 0.16970555 -0.055939544 -0.099395625 0.010184026 0.14254852
0.2719689 -0.06546808 0.021283954 0.1596873 -0.024388477 -0.07990827 -0.027871221 0.16645233
0.23915407 0.022049977 -0.041466262 0.026080536 0.0956805 -0.10627855 -0.0012769325 0.06328424
0.22810858 0.47361186 -0.0082925875 -0.048703868 -0.048166733 -0.120389625 -0.010673823 -0.05130941
0.11649824 0.2942398 0.03365407 -0.20158601 -0.16431959 0.033481445 0.020932944 -0.18601182
0.20245256 0.17380597 0.011415038 -0.16289972 -0.21946332 0.047865164 0.07266362 -0.2210614
0.09649473 -0.046579324 0.012247505 0.0012668091 -0.089481905 -0.04283679 -0.05222168 -0.03741086
0.21089475 -0.047807086 -0.018304547 0.039960515 0.18329124 0.018645518 0.0031745606 0.00045393858
0.20458755 -0.07952132 0.023938501 0.10700048 0.5520391 0.004540891 0.048997153 0.020405259
0.15270756 0.25861585 -0.005783173 -0.015986659 -0.11298105 -0.18868932 -0.055105384 0.018191352
0.19927208 0.21254501 -0.022701424 -0.03544907 0.046074007 -0.13453472 -0.01625567 -0.07535197

layers.0.bias f4 [400]
00000000: 1c91 993d 9a69 b2be 3f61 87be 20bf a3be
00000010: a57e e13d c304 34bd 8e94 3cbe a7a8 463c
00000020: 8b82 61be 55e3 e1be 26ba 87be f965 60be
00000030: 6d8d a9bd c0bc e8bd 0880 c7be 23db 9c3e
00000040: 9bba dd3c 9e4c bfbe 9ce0 b5be b59c 7a3e
00000050: f63d afbc d599 723e c3aa f0bd e46d 8dbd
00000060: 3ae5 c8bd a7ab 943e fda1 293e 4fcc 0fbd
00000070: e5d6 bdbd 2efe c8bd 506b df3d 0158 773d
00000080: 405a 873e c52b 7abe 27ea d2be 5ef7 013f
00000090: 3cd7 d33d 6d01 343e 2409 5cbe a808 54bd
000000a0: 1552 26be 15f7 97be ec36 30be 55a6 4c3d
000000b0: cf0f 43be 64f9 af3c 77c6 7abe acad bdbe
000000c0: 8778 a4be 909f 9e3e 1c1e febd 55cc 623e
000000d0: d4a8 f9be a7bb 9d3e a49a c3bd 470e be3d
000000e0: fd60 1dbe a7c7 4e3c 7dfd 4e3d 28dc e0be
000000f0: c6ee 74be 0a28 d1be fe32 e3bd 1863 67be
00000100: 96ad 9fbc 8317 d8bd 7563 0dbe 295c acbb
00000110: 5dd8 ba3d a9d0 59be b89b 8fbe 6dc9 0c3e
00000120: 8c57 a03d c4f5 83bd 94cb a13e 628b 3cbd
00000130: 073e dcbc 4ccd 613d c0b2 18bf 7826 56be
00000140: 778b bd3e 771c 09bf 7660 d2be 12ff 88be
00000150: 93a7 e0be f1cb 8dbe c731 c6be 30fd 553d
00000160: 5846 0a3e 491d 20bd 0aae b13d 56b9 253e
00000170: 0ef7 903e d04c ea3d 7dc0 7b3c 23e0 8dbe
00000180: 599e d33e 0007 2f3f e689 a8be b52c 86be
00000190: c7ca c9be 69c2 f43d 9b91 583e 10d2 c93e
000001a0: c625 b6bc 1c61 b9be c483 97be b9b9 8abe
000001b0: dad2 4dbe 1313 e9bd f4b3 a2be 8c1a 78bd
000001c0: b73f bebe d301 11bc 4587 26bf 75ab 3fbe
000001d0: ae02 22bf 1251 d13d a4b2 3f3e 5749 133d
000001e0: d648 8ebe 0dd4 cb3d 0dc0 5dbe bed7 50be
000001f0: 9ec6 1a3e 05c5 a4be 08e2 2f3d fe18 c83d
00000200: 8748 813e 95b7 9fbe d193 a4be 0649 973b
00000210: a161 a53d fa4a 4d3e adc9 7d3d cfef aebe
00000220: cbf5 07be e5d5 02bd 83f4 bebe 5a26 a3be
00000230: 4ca1 1fbe 0fca 6fbc a687 4bbd 0852 9d3d
00000240: 575a 573e 6572 b4bd 3388 bcbd 5ceb 093e
00000250: d712 75be c1dc 36bd 347c 00be 9de6 80bd
00000260: f209 333e 45e2 b03e adea a13e 0aca 1f3e
00000270: 7fe1 31bd abaa 1bbf 5158 36be 1a01 843e
00000280: a250 0bbe 27b8 af3d 4244 ecbe a359 32be
00000290: b57e f6bd 44b2 8abe a370 80bd 92a8 d83d
000002a0: 579a 2abe ec9a fb3e 4601 c23e e54e df3e
000002b0: 1599 70be 66f9 a8bd f889 d0bd 8eca 4cbe
000002c0: 9680 a1be 8ec7 32be eb05 033d d780 f2bc
000002d0: bf8f 653d 505e 66be 85dc c8be a993 e8bd
000002e0: 0896 5b3e 5041 b8bd dee3 ad3c 2782 77be
000002f0: 7fda 72be 3347 e13d 4bf6 e03e 4af5 8c3e
00000300: c9b2 4d3e 9813 593e f611 9ebe 8701 883d
00000310: cc4d d43d 331c c23d b73c 2dbd bdb8 5a3e
00000320: d579 d6bd 6412 343e 5b88 093e 8926 cdbd
00000330: 0e90 bbbe fd36 7c3e 6759 b6be aa9f a8bd
00000340: 83cc 33bd 3600 8a3d 44ad 4abd 3b06 353e
00000350: 357f b9bd fca1 a4be beba d43c 04e7 933d
00000360: da96 7cbd f198 2fbe 7963 d8be c531 693e
00000370: 38ed 7fbe 6cd6 02be 0ef4 7a3e e410 9b3d
00000380: 87e3 58be c757 38bc 496d 37be d4c0 853e
00000390: b427 be3d ef72 93bd 0cd7 6b3e f46e e2be
000003a0: 7217 99be fc26 a93d 278a 5c3e 9672 6e3e
000003b0: 1a96 32be 72f2 8abb 44e3 b4bc eddf 323e
000003c0: c38c 8dbe ace9 bbbd 2638 f2bd 3d3b b2be
000003d0: 6ad7 f5be f024 babd 6dc7 99bd df04 f43c
000003e0: d74b 133d 6890 b0be 359b 223d 0b24 7f3d
000003f0: 52d2 24bd 3189 08be 4a46 923e 5fac fd3d
0.074983805 -0.34846193 -0.2644138 -0.31981754 0.11010484 -0.043949854 -0.18416044 0.012125171
-0.22022454 -0.44118753 -0.26509207 -0.219139 -0.08278928 -0.11364126 -0.38964868 0.30635938
0.02706652 -0.37363142 -0.35522926 0.24473841 -0.02139185 0.23691495 -0.1175132 -0.069057256
-0.098093465 0.2903721 0.165657 -0.035106953 -0.092695035 -0.09814106 0.1090914 0.06038666
0.26436043 -0.24430759 -0.4119427 0.5076808 0.10343787 0.17578669 -0.21487862 -0.051766068
-0.1624225 -0.29680696 -0.17208451 0.049963314 -0.19048999 0.021481223 -0.24489771 -0.37046564
-0.32123205 0.30981112 -0.12408087 0.22148259 -0.48761618 0.3080723 -0.0955098 0.09280067
-0.1536903 0.012620843 0.050534714 -0.43917966 -0.2391921 -0.4085086 -0.1109371 -0.22596395
-0.019491952 -0.105513595 -0.13807471 -0.00526001 0.09123299 -0.21271004 -0.2804849 0.13748713
0.07829198 -0.064433604 0.3160063 -0.046031363 -0.026885046 0.055127427 -0.5964775 -0.20913112
0.37020466 -0.5355906 -0.4108922 -0.26757103 -0.4387785 -0.27694657 -0.38709852 0.05224341
0.13503397 -0.03909043 0.086757734 0.16183981 0.28313488 0.11440432 0.015365717 -0.27710065
0.41331747 0.68370056 -0.32917708 -0.26205984 -0.3941252 0.11951143 0.21149294 0.39418077
-0.022234809 -0.362069 -0.29592717 -0.2709482 -0.20099965 -0.11380591 -0.31777918 -0.060572192
-0.37157986 -0.008850533 -0.65050155 -0.1871775 -0.6328534 0.10220541 0.1872049 0.035958614
-0.27789944 0.09952555 -0.21655293 -0.20394799 0.15114829 -0.32181564 0.04294017 0.09770392
0.25250646 -0.3119475 -0.32144025 0.0046168594 0.08075262 0.20048133 0.06195991 -0.34167334
-0.13277356 -0.031942267 -0.37295923 -0.31865197 -0.15588874 -0.014635577 -0.04968991 0.07681662
0.21030556 -0.088108815 -0.092056654 0.13468689 -0.23932968 -0.04464412 -0.1254738 -0.06293986
0.17484263 0.3454763 0.31624356 0.15604416 -0.04342794 -0.60807294 -0.17807128 0.2578209
-0.13604978 0.08580046 -0.46145827 -0.17417006 -0.12035886 -0.2708913 -0.06271484 0.10579027
-0.16660438 0.49141634 0.37891597 0.4361488 -0.23495896 -0.08250694 -0.101825655 -0.19999143
-0.31543416 -0.17458937 0.031988066 -0.029602451 0.05604529 -0.22496915 -0.39230743 -0.11356289
0.21443951 -0.08996832 0.02122682 -0.24170743 -0.23716162 0.10999908 0.43937907 0.2753089
0.20087732 0.2119888 -0.30873078 0.06640916 0.10366401 0.09478035 -0.04229423 0.21359535
-0.10472456 0.1758514 0.13430922 -0.100171156 -0.36633343 0.24630351 -0.35615084 -0.082335785
-0.04389621 0.067383215 -0.049481645 0.17678158 -0.09057466 -0.32154834 0.025967952 0.07221797
-0.0616673 -0.17148186 -0.42263392 0.22772892 -0.24992836 -0.12777108 0.24507162 0.07571581
-0.21180545 -0.0112513965 -0.17912783 0.2612368 0.092849165 -0.07199656 0.23031253 -0.44225276
-0.299007 0.08259389 0.21537076 0.23285899 -0.17440072 -0.0042403275 -0.022081025 0.17468233
-0.27646455 -0.09175429 -0.11827116 -0.3481082 -0.4801591 -0.090890765 -0.075087406 0.029787479
0.035961 -0.34485173 0.0396988 0.062290233 -0.04023964 -0.13333584 0.2856925 0.12386393

layers.1.weight f4 [300, 400]
00000000: 793e eabc 7387 e9bc ceb7 9a3d 6257 213e
00000010: d27c a03a a3fd 08be 7c0b 20bd b957 b1bc
00000020: b461 a0be fb8d 473e 0962 1f3e 9f69 153e
00000030: 7a6c 81bd 7bed 093e 9363 9d3c 8bda 16be
00000040: abfb dcbd db4d 6d3e 6f5a 453e 8a39 64bd
00000050: 2f89 803a 7efa 4abe 4041 dc3e b6a9 22bc
00000060: d87e 4abd 2311 3bbd defe 98bd 5ab2 aebd
00000070: dd4c 46ba 3dd3 4cbe 08e8 7dbd d19a c7be
00000080: af63 d6bd b711 90be 92da b6be 7aa2 1dbe
00000090: 8314 83be 6eb7 5ebe f152 ddbe 2118 c73c
000000a0: e50a f83d 389c 0bba b0e6 d23d 4cc5 0cbe
000000b0: 6685 3abe fd3c 033e f8d1 ecbd 4903 f73d
000000c0: f8de b13d f75c 05bd b0ff e0be 09ac d4bc
000000d0: f502 0dbd 5813 0fbf e848 873d 5f95 19bf
000000e0: 66ba 4b3d 2a26 083d e62f c2bd d91f 8d3d
000000f0: 0897 d2bd acb1 a33b cb63 b7bd c384 28be
00000100: 41cc a8be c2c3 bd3d 699f 803e 2b45 16bd
00000110: 95b6 6ebd de44 68bd f8c5 993e db84 09be
00000120: 2117 d33c 0709 c8be 181f 1c3d 16f0 71bd
00000130: 9246 0abe 76ea 89be 4ac1 543e a534 96bc
00000140: 9052 c23d 66cc acbd 6d7b 013f 3787 c33e
00000150: 4f21 083e 9f6f 0ebe 2e57 903d f388 dfbd
00000160: 923c 5cbe 1c60 7dbe c501 2bbe bf86 4bbd
00000170: ea2d e2bd cf27 9d3c af88 eebd 41ed 1abc
00000180: ffdd 3dbe 93d6 30be e5b9 a63d af2b 9d3c
00000190: 6be3 5a3d b98f d5bd 22de 2b3e ab5e 37be
000001a0: 2e7f a73d 7451 aebd 22fd 71be 423e b1bd
000001b0: 37a3 9d3d e80b 063e a8bd 893e 006d d1bc
000001c0: 519e b43e 1e20 2bbe 2b6e 8d3e eb99 31bd
000001d0: ee55 8a3d bc6f a5be d2b7 95be 0efc f93c
000001e0: 2cfc 49be ef01 0fbe e03b 523e 4774 4d3e
000001f0: 79d9 e13c f77a 7f3e 5cb0 a0bd 2d9f e33d
00000200: 9f49 d0bd e703 dd3e 1a95 6d3e d6a3 82be
00000210: 1cc3 95bc 73d1 62be 08ac 97bd aed9 9b3c
00000220: 0b18 913b 871c 10be 1139 5b3e a723 da3c
00000230: 1fb6 a73d 605c ab3d 3b43 3cbd e93b 49bd
00000240: 8ec0 96bd 48eb a7bd d8cc 7d3e c5eb b63c
00000250: 1010 3e3d a489 743e 8285 8a3d be85 053e
00000260: c6e7 76be 608a 7a3d 227d eebc d250 bebb
00000270: 68bd 58bc efda 243e 3397 e33b 6d2d d4be
00000280: fda0 453d 0c59 50bd 34b5 a33e 3f54 bbbc
00000290: ce54 a53d 1109 983e 2d97 963d 42e0 61bd
000002a0: 3e51 f3bd 2865 16be 0c81 97be e628 53be
000002b0: 3209 4e3e d9d2 ea3d c21b 2e3d 1a32 a93d
000002c0: 280e e13d b5be 8a3b 84ed 47be c0e0 773e
000002d0: bed4 e2bd 8c91 653d 4378 843e 279e cabd
000002e0: 4c69 6bbe eb3b 56bd f522 f7bd 6d92 7d3e
000002f0: f0c2 10be 87ec 7cbd 274d 53be ea94 623d
00000300: a8e7 3ebc 8c0d 123d a4a8 83bc 24fe 22be
00000310: 63ec 90be 9f72 5dbe 9701 65be ecc0 273d
00000320: 2059 74bb 89f2 38bd 518d 613d e269 3cbc
00000330: 88d1 393e 6932 503d 97ce f1bc 5517 c03d
00000340: d89f 92bd 1265 13be 3a63 7a3d 7851 253e
00000350: 3030 8ebe 5469 c33d c337 8bbe da2b 3dbd
00000360: ceb7 abbe 6b52 133e b7d6 033d 20bf 85bd
00000370: 5348 063e fda7 053c 9b3e 60bd a141 64be
00000380: 926a 6b3d d8fe 47bd 2448 813d 85ed f5bc
00000390: db65 aebe ab96 153d 9960 44be 187e 33bc
000003a0: f544 8b3d 7e80 603e 6d9d d93d afa3 e3bc
000003b0: 842b 0ebb 14e9 93bd 5da1 c2bd e6d2 95be
000003c0: 1f49 d5bd 6d7f 9fbc 1728 4d3d e6d7 743d
000003d0: ac89 b43d c5b8 823d a5e0 67bd a634 0d3e
000003e0: 6130 353c 7a1a 6fbe 15b0 67be 85e7 fcbd
000003f0: 659b 5bbc c214 383d a385 b4be 67a3 b9bd
-0.028594242 -0.02850697 0.07554589 0.1575599 0.0012244231 -0.13378005 -0.039073452 -0.021648275
-0.31324542 0.19487755 0.15564741 0.14591072 -0.063195184 0.13469498 0.01921252 -0.14731805
-0.10790189 0.23174231 0.19272779 -0.055718936 0.0009806509 -0.19822118 0.43018532 -0.009928158
-0.049437374 -0.04567064 -0.07470487 -0.085301116 -0.0007564554 -0.20002456 -0.06198886 -0.38985303
-0.10468232 -0.28138515 -0.3571363 -0.15394011 -0.25601587 -0.2174966 -0.43227342 0.024303498
0.12111453 -0.00053257076 0.102979064 -0.13747138 -0.1821495 0.12816234 -0.11563486 0.120611735
0.08685106 -0.03255936 -0.43945074 -0.025960939 -0.03442665 -0.5588889 0.06605703 -0.5999355
0.04973831 0.03323952 -0.09481792 0.0689084 -0.10282713 0.0049955454 -0.08954581 -0.16456895
-0.32968333 0.092658535 0.2512162 -0.036687057 -0.058279593 -0.056706302 0.3003385 -0.13429587
0.025767865 -0.39069387 0.03811559 -0.059066854 -0.13503483 -0.26936692 0.20776859 -0.01833565
0.09488404 -0.084374234 0.5057896 0.38189098 0.13293956 -0.13909768 0.07047878 -0.10914793
-0.2150748 -0.24743694 -0.16699894 -0.04968905 -0.11043914 0.019184021 -0.11647164 -0.00945598
-0.18541716 -0.17269354 0.08140925 0.019185869 0.05343954 -0.104278035 0.16783956 -0.17907207
0.081785545 -0.0851163 -0.23631719 -0.08654453 0.076971464 0.1309048 0.2690251 -0.02556467
0.35277036 -0.1671147 0.27623114 -0.04335968 0.06754671 -0.3231181 -0.29241806 0.030515697
-0.19725102 -0.13965581 0.20530653 0.20063888 0.02756952 0.24949251 -0.07846138 0.11114345
-0.10170292 0.4316704 0.23201409 -0.25515622 -0.018281512 -0.22150211 -0.07405859 0.019024696
0.004427915 -0.14073382 0.21408488 0.026628328 0.08189034 0.083672285 -0.045962553 -0.0491294
-0.07360946 -0.08199173 0.24785173 0.02232922 0.046402037 0.2388063 0.06763746 0.130393
-0.24111852 0.06116712 -0.029112402 -0.0058079744 -0.013228752 0.16099142 0.0069455146 -0.41440907
0.048249234 -0.05086617 0.31974185 -0.02286732 0.08072816 0.29694417 0.07353053 -0.05514551
-0.1188073 -0.14687026 -0.29590642 -0.2062107 0.20120695 0.11465997 0.04250694 0.08261509
0.10989028 0.00423416 -0.19524199 0.24206829 -0.110757336 0.056047007 0.25873002 -0.098934464
-0.22989386 -0.052303236 -0.120672144 0.24762888 -0.14136863 -0.061749008 -0.206349 0.055317797
-0.011651911 0.03565745 -0.016071625 -0.1591726 -0.2830535 -0.21625756 -0.22363888 0.04095547
-0.0037284568 -0.045153175 0.05506641 -0.011499854 0.18146336 0.050829325 -0.029517455 0.0937945
-0.07159394 -0.14394024 0.061129786 0.16144359 -0.2777114 0.09541574 -0.2719098 -0.0461844
-0.3353867 0.14386909 0.03218719 -0.06530595 0.13113527 0.008157727 -0.054747205 -0.2229066
0.05747468 -0.048827022 0.06312588 -0.030020485 -0.34062085 0.03652064 -0.19177474 -0.010955356
0.06800262 0.21924016 0.1062573 -0.027788011 -0.0021693418 -0.072221905 -0.09503434 -0.29262465
-0.10414337 -0.019469941 0.05008706 0.05977621 0.08815321 0.06382898 -0.056610722 0.13789615
0.011058898 -0.23349944 -0.22625764 -0.12348846 -0.013403748 0.04494167 -0.35258207 -0.0906437

layers.1.bias f4 [300]
00000000: e20d 95bb 24cf 7dbc 869d 11bc 3978 a03c
00000010: 088f 1ebd cad2 d13d b268 f9bc e133 06be
00000020: e29a 62bd 92d7 1ebd b2c2 96bd 665b 63bd
00000030: 482d 78be 212a 363d 235f 7f3d 083a 48bd
00000040: 05cf dbbd ec7a a13a 6cc0 15be b39d 233c
00000050: 6137 903d bd3f 24bd a267 31be d91e 943d
00000060: 2207 d1bd b932 babd 9f2d 50be 0202 bc3c
00000070: 685d b83c 2fd4 52be 5c20 80be 0e0d 88bd
00000080: 61b8 66be 8570 56be 86d5 c13d 4a76 b5bd
00000090: 5cab a03d acc4 36bd b642 8e3d c8e3 08be
000000a0: f75e ecbd 18d9 07bd 93a6 3f3d 01de 81bd
000000b0: 880d 5b3c 74ed 34be b787 02be 1ca0 98bc
000000c0: 9028 483d 92a5 46bd b4f5 debc f743 69bd
000000d0: ac5f 8cbd 8906 11bd 4241 b63d c72e aebc
000000e0: d2f6 343e bc2b aebc 9310 0abb 4192 05be
000000f0: c21e b53d 0a23 163e fa28 6abd 461d 14bd
00000100: d5cb 90bd 0435 50bd d53d 97bb bf42 f1bd
00000110: 616e a2bd 4e95 bc3c 3408 11be abdb debd
00000120: e91f 76be 012a cbbd cfb6 02be cb80 c0bd
00000130: 2517 8abb a93f 34be 733b 1cbe 8d05 ad3d
00000140: 4b34 4ebd 9c41 25bb 31de 2ebe 866a 0bbd
00000150: c583 63bd c520 433d 7bcb 5d3d 87a9 a0bd
00000160: 4b03 df3c ffb1 ba3d 210f 56bd a09f 5ebc
00000170: 2722 afbd 5339 58be e10e 4cbc 7feb 8fbd
00000180: 42d5 0ebe 5693 09be 5a1a 82bd 5852 58be
00000190: 175c c13c 545b 27be 2873 3dbd 1a4d 00bd
000001a0: e9be 21bd 9ad8 26bd 9cc5 22bd 9a3f 7bbd
000001b0: 75b8 3cbe 156d 5cbe f163 cf3c 55bc 87bd
000001c0: 976d 8bbc 076a c2bd 844b 33bd a7c5 bfbc
000001d0: 468f f9bd 9e84 04bd 6c80 8d3d 9d76 99bc
000001e0: e612 a43c 6265 99bd cf92 bbbd 48c3 16bd
000001f0: 75f3 3ebd f527 9abc 6eb9 613d 9ccd 143e
00000200: 1da0 5f3d 8b4e cdbc c5e5 553d 81bb 73bd
00000210: 4495 cabd a023 26be 6549 813d 8097 8638
00000220: abc9 cebd 6f7e 71bd 63f2 743d d5ce b1bc
00000230: acc6 54bc 19c9 34bd b96e bb3c e83e 2cbe
00000240: 672e 5dbb da20 e0bd ff78 aebd 3a0e f6bd
00000250: 9842 7a3d ce28 e83d 6e4e 93bc 5fb9 8abd
00000260: c2e9 6bbd 1670 83be b992 88bd 6eaf 8cbd
00000270: 48ca 8c3d 98de 75bc 2d1d 89bc 7d1b 4bbd
00000280: fb86 793d 264f d03d 6357 0cbe 6684 c5bd
00000290: 5961 79bc 89ce 89bc 138b 3dbe f338 0f3e
000002a0: c4f7 fabd 0efd 46be 871a 2bbd 914c 0bbe
000002b0: 11cb 2dbe 58fb 793d 3008 0e3d 5bef 94bd
000002c0: a78a c1bd e70d 81bd ecb1 55be 4174 09bd
000002d0: 9e28 bbbb 0c95 f43d 7e1a b33c e9c2 12be
000002e0: 6a5b 0a3e 3940 be3d 1d9a 0c3d 6af0 153d
000002f0: 47a5 453d 2a36 9bbd 9719 04bd f0fd 08be
00000300: 45b0 7cbd b2e5 72bc 01c9 783d e820 31bd
00000310: 4893 c23c c467 cbbd a465 4b3d d63a d0bc
00000320: 9e21 02bd 1176 2ebc 512d 08bc 561e 1cbd
00000330: 8484 aebd 9fe1 7bbd 0dfc d5bd 72e6 6c3d
00000340: 46f0 f6bd a3e4 56bd 6da4 e7bd 2f2b 02be
00000350: f838 afbd 21dc 5a3b d817 213d 9c35 173d
00000360: 2b1c e73a 443b 19bc 5d2f 8abe 15fa 313c
00000370: 93b4 9a3d e8fd 98bd e082 15be 21e6 fabd
00000380: 20a9 3ebd ad12 473c 4017 7fbe 2c31 08be
00000390: 403c 923d 830a 5d3c ef0c d1bc 9ab4 42be
000003a0: 6f85 66bb b7ad 08be 2faa 813d f620 2a3d
000003b0: 2cb7 6bbe 2b03 413d d704 42bd 5d2f 653d
000003c0: 362b cd3c 81d0 51be bf59 223d a80d 0ebe
000003d0: b7a4 90bd 3abb 44be eb2f 74bc 57b0 ddbc
000003e0: fdfa 9dbc c4e3 ed3d 1293 81bd 04d7 3cbd
000003f0: ef05 04bc 6666 51be adfc c2bd 94ef 27be
-0.004548774 -0.015491281 -0.008887654 0.019588577 -0.038710624 0.10245283 -0.03044543 -0.13105728
-0.05532349 -0.038779803 -0.07361354 -0.055507086 -0.24236023 0.04447377 0.06234659 -0.048883468
-0.10732845 0.0012319959 -0.14624184 0.009986329 0.07041813 -0.040099848 -0.17324689 0.07232446
-0.102064386 -0.09091706 -0.20329903 0.022950176 0.022505477 -0.20588754 -0.25024688 -0.06643115
-0.22531272 -0.2094136 0.094645545 -0.088604525 0.07845184 -0.044621155 0.06946318 -0.13368142
-0.115415506 -0.03316602 0.046789717 -0.06341172 0.013369925 -0.17668706 -0.12747084 -0.018631034
0.04886681 -0.048497744 -0.02721677 -0.056949582 -0.068541855 -0.035406623 0.08899166 -0.02126254
0.1767228 -0.021261089 -0.0021067008 -0.13044073 0.08843757 0.14661804 -0.057167985 -0.03616073
-0.07070128 -0.05083181 -0.0046155252 -0.11780309 -0.07931209 0.023020413 -0.14163285 -0.10881742
-0.2403561 -0.09920121 -0.12765048 -0.09399565 -0.004214185 -0.1760241 -0.15257053 0.08448324
-0.05034284 -0.0025216108 -0.17076947 -0.034037136 -0.055545587 0.047638673 0.054149132 -0.07844835
0.02722325 0.09115981 -0.05226052 -0.013587862 -0.08551436 -0.21115617 -0.012454719 -0.07027339
-0.13948539 -0.1343511 -0.063526824 -0.21125162 0.023603482 -0.16343433 -0.0462524 -0.03132353
-0.039488707 -0.04073391 -0.039739236 -0.061339952 -0.1842974 -0.21525986 0.02531621 -0.06627718
-0.01702003 -0.09492879 -0.04377319 -0.023409678 -0.1218553 -0.032353036 0.0690926 -0.018733317
0.020028543 -0.0749004 -0.09158861 -0.03680733 -0.046618897 -0.018817881 0.05510848 0.14531559
0.054596055 -0.025061866 0.05222108 -0.05950499 -0.098917514 -0.16224527 0.06312827 6.417837e-05
-0.10097059 -0.058958467 0.05980147 -0.02170507 -0.01298682 -0.044137094 0.022879945 -0.16820872
-0.0033749582 -0.10943766 -0.08519172 -0.12014432 0.061098665 0.11335908 -0.017981734 -0.06773638
-0.057595976 -0.25671452 -0.0666861 -0.06869398 0.068745196 -0.015006684 -0.016737545 -0.04958676
0.060919743 0.10171346 -0.1370521 -0.096443936 -0.015220963 -0.016822116 -0.18510084 0.13986568
-0.12254289 -0.1943247 -0.041773345 -0.13603427 -0.16971995 0.061030716 0.034675777 -0.07272216
-0.09450274 -0.0630148 -0.20868653 -0.033558134 -0.005711629 0.11942491 0.021863218 -0.14332165
0.13511434 0.09289593 0.03432666 0.03660623 0.048253324 -0.0757869 -0.032250967 -0.1337812
-0.06169154 -0.014825271 0.060738567 -0.043244272 0.02375187 -0.09931901 0.04965748 -0.02541868
-0.03177034 -0.010648266 -0.0083115855 -0.038114868 -0.08521369 -0.061494466 -0.104484655 0.057836957
-0.12057547 -0.05246414 -0.113106586 -0.12711786 -0.08555788 0.0033395367 0.03932938 0.03691636
0.0017632296 -0.009352509 -0.2698926 0.010862847 0.07553973 -0.07470304 -0.14600706 -0.12250925
-0.04654801 0.012150449 -0.24911213 -0.13300008 0.07140398 0.013491276 -0.025518863 -0.19014207
-0.0035174747 -0.13347517 0.06331288 0.04153534 -0.23019093 0.04712216 -0.047367897 0.055953372
0.025045019 -0.20489694 0.03963637 -0.13872397 -0.07062667 -0.19212046 -0.014904003 -0.027061624
-0.01928472 0.116157085 -0.063268796 -0.046103492 -0.008058055 -0.20449218 -0.0952085 -0.16399986

layers.2.weight f4 [2, 300]
00000000: 53a3 033f d74d 103e 3315 1abd 4c68 803d
00000010: d814 7b3e ad19 82bc 07db 2ebf c77c 4fbf
00000020: b17d 523f e3e5 883d 3bd1 aebe 9487 4d3d
00000030: ad35 4b3e b595 523e 53e5 003c 35d7 a43e
00000040: fee8 0bbd 4cff 1dbf f31f e63c b808 293e
00000050: 3531 0a3d aab3 a3bc 24ca dd3e 5990 8abf
00000060: 4f7c b43e da3b 0f3f 0bc4 02bf 9887 cd3c
00000070: 1b83 cbbd 085a e73e 41f4 cdbe 7426 4e3e
00000080: bb47 23be 817b 5f3e 6e15 5a3e 26e6 dabc
00000090: 01ff 96bd 79ab 573d 9288 e73d 4fae 223f
000000a0: 6475 0abe 0b73 55bf c51c 79be 6326 c5bd
000000b0: d0ba 3aba 55cf 7ebf 8724 af3e 44cc 083d
000000c0: 3ac7 0d3e 8c72 4d3e 644e 623c d9b2 96be
000000d0: 65ef 0ebd e11f b8be 22d2 f8bb 6eaa 1ebe
000000e0: f14e c5bd 1635 8cbd 4824 c63d ef18 603f
000000f0: f585 b4bc d8e4 3abd 04a7 1e3f d2b3 303f
00000100: c2d5 ca3e 694a e23d b33b 48bc 6c6b 933e
00000110: fa97 33bc e6c1 2fbe ab68 0abf 4058 f93d
00000120: 98d3 dcbe 7147 273f aa6e 9d3e 3d35 f0be
00000130: a746 fabd c6f9 12bf 8aa2 a8bc e65d 493f
00000140: 1791 223c 0236 073f 891d 08bf 6d4f 773e
00000150: 7c9c 48be 7f9a 2fbe 1342 323f f398 cbbd
00000160: 48b9 2a3f f5d0 0ebd 535f 44bd 5f9c c8bc
00000170: bc10 123f 1d46 9a3e b57d 5a3f b39c 56be
00000180: 3c56 47bf f484 553e 98f2 68bc 2cb6 733c
00000190: 681d 343c 46b5 fa3e aaa9 83bd 0686 a6be
000001a0: 9a01 2d3f 72e8 41be c271 ac3e 267d 9c3e
000001b0: 35eb a7be 7e9e 14bf 36d8 dcbe d2bf 96be
000001c0: dc00 5e3d c344 18bf fa7d 00bf 940c febd
000001d0: 2417 acbe b0b1 bfbd aeef 4abd c580 a0be
000001e0: 8a02 0e3f 45ae 58bf 021d 0a3f 3c16 c83e
000001f0: 2556 523e da0c 3bbf b152 333d 1ec2 a13d
00000200: 7fa2 24be 3503 4abf 2c1d 34be b087 1abd
00000210: 3477 d3bb 6399 13be 7607 59bd dc7a 643d
00000220: 5948 81be d306 a2be 95f0 1c3d e86c ea3d
00000230: a9f4 0ebe 7adb 64bf 8571 fbbe 75d8 a8be
00000240: 6327 42be 3687 84bd 8d85 453d cd8e 9fbe
00000250: c4b8 90be 342c 413b 9581 d83c 4ad9 143e
00000260: c861 2fbc 5a56 5c3e bddb 20be 3349 2bbd
00000270: 9bce 60bb 38aa 01be 9bb1 233d 60cb 8fbe
00000280: 27a3 843c e462 50bd 38c0 4ebc 08ea dc3e
00000290: 6f82 0ebd de26 0e3c c00f 00bf 87cc 3abd
000002a0: 247d cf3e 1830 dabd fad4 bd3e 6c68 acbc
000002b0: 91f7 373e 7ce8 82bf 4a92 9b3d b586 343e
000002c0: 5fb4 6abf e076 073f 1b92 51bf 4921 aabc
000002d0: ea1b d5bc b320 13bd 28a2 23bc 5c9f c4be
000002e0: 7e20 263d 3597 e53d d17c 263f 2640 0cbd
000002f0: 5668 82be 9dcc aebe 1abc 6b3e 3db1 aebe
00000300: 23c1 233e 7c50 cf3e 10e3 d83e 2880 84be
00000310: c2b2 9bbd 9469 f4be c0a4 ed3e 09bc 283e
00000320: 6f24 ad3e 445f 57be 5a78 2a3e c9c4 bf3b
00000330: 5a68 683e ef16 923d e3d4 e63e b99b e93e
00000340: e134 94be 352f 403c d0d2 1f3f c7c5 763e
00000350: 1e3f 133d 504f e7ba ab55 f73f c877 ec3c
00000360: 8096 9e3c b991 29bd ac11 c6bd d6d3 4bbd
00000370: f287 84bc 64b4 4c3f 85fd 65be 6645 65be
00000380: ddcb 363f cfe5 84bf 43ee 0d3e d15f debd
00000390: fa68 153d 9c05 22bf 9c7d bcbe 4317 1a3e
000003a0: e9d7 a63e ec26 7a3f 5a61 82be 1e39 8c3c
000003b0: eac6 20be 4372 473d 1bd0 3a3e 92cf 1ebe
000003c0: 6f6e dc3e 7a75 ec3c 78c7 cabc c47f f3be
000003d0: 2d62 203f c78a b1bb b820 ffbd 95ab ec3e
000003e0: 4749 d5be fc47 d5bb 9e77 333f c375 87be
000003f0: b4bc 5bbe 6094 883e 1fc7 b03e d70c 5cbe
0.5142109 0.14092194 -0.037617873 0.06269893 0.2451967 -0.015881384 -0.6830296 -0.8104977
0.8222304 0.066844724 -0.34144005 0.050178126 0.19844694 0.20564921 0.007867175 0.3219544
-0.034157746 -0.6171768 0.028091406 0.16507232 0.033738334 -0.019983131 0.43318284 -1.0825301
0.3525109 0.559507 -0.5108039 0.02508907 -0.09937116 0.45185876 -0.40225413 0.20131856
-0.15945332 0.21824457 0.21297237 -0.026721071 -0.07372857 0.052653763 0.113053456 0.63547224
-0.13521343 -0.83378667 -0.24327381 -0.09626462 -0.0007123174 -0.99535114 0.34207556 0.033397928
0.1384553 0.20063227 0.013812635 -0.29433325 -0.034896273 -0.35961822 -0.007593409 -0.15494701
-0.096341975 -0.06846063 0.09674889 0.87538046 -0.022036532 -0.0456284 0.61973596 0.69024384
0.3961621 0.11049349 -0.012221265 0.28792894 -0.010961527 -0.1716381 -0.5406596 0.121750355
-0.43130183 0.65343386 0.30748492 -0.46915618 -0.12220507 -0.57412374 -0.020585317 0.786589
0.009922287 0.52816784 -0.5317007 0.24151392 -0.19590944 -0.1714878 0.6963207 -0.09941282
0.66688967 -0.034867246 -0.04794247 -0.024488626 0.57056785 0.30131617 0.85348064 -0.20958214
-0.7786596 0.20851499 -0.014217995 0.014874976 0.010993339 0.48966426 -0.06428845 -0.32524127
0.6758057 -0.18936327 0.3368054 0.3056423 -0.32796636 -0.5805434 -0.43133706 -0.29443222
0.05420004 -0.5947992 -0.50192225 -0.12404743 -0.33611405 -0.09360063 -0.049544983 -0.31348243
0.55472624 -0.84640914 0.5395051 0.39079463 0.20540674 -0.73066485 0.043780033 0.07898353
-0.16077612 -0.78911144 -0.17589253 -0.037727058 -0.006453419 -0.14413981 -0.05298563 0.05578123
-0.2525051 -0.3164583 0.038315374 0.114465535 -0.13960518 -0.89397395 -0.49110046 -0.32977644
-0.18960337 -0.06471102 0.048223067 -0.31163636 -0.28265965 0.002947581 0.026428977 0.14536014
-0.010704465 0.21517316 -0.15708824 -0.041817855 -0.0034302834 -0.1266259 0.0399643 -0.2808485
0.016191078 -0.05087556 -0.012619071 0.43147302 -0.03479236 0.008676259 -0.5002403 -0.04560521
0.40525162 -0.106537044 0.3707655 -0.021045886 0.17965533 -1.0227199 0.07596262 0.17629512
-0.91681474 0.52915764 -0.81863564 -0.020767825 -0.026014287 -0.035919856 -0.0099873915 -0.38402832
0.04055833 0.11210481 0.65034205 -0.034240864 -0.25470227 -0.34140483 0.23020974 -0.34119597
0.15991645 0.40491092 0.42360735 -0.25879025 -0.07602455 -0.477368 0.46414757 0.1647798
0.3381686 -0.21032435 0.16647473 0.005852316 0.22696057 0.071332805 0.45084295 0.4562662
-0.28946593 0.011730005 0.6243105 0.24098884 0.035948865 -0.0017647538 1.9323019 0.02886571
0.019358873 -0.041398738 -0.096713394 -0.04976257 -0.016178105 0.79962754 -0.22459991 -0.22389755
0.7140482 -1.0382632 0.13860421 -0.10858119 0.036477067 -0.6328981 -0.36814582 0.15047936
0.325866 0.9771564 -0.25464898 0.01711708 -0.1570088 0.048692953 0.18243448 -0.1550887
0.43053004 0.028864611 -0.024753317 -0.47558415 0.62649804 -0.005418155 -0.124574125 0.46224657
-0.4165747 -0.0065088253 0.70104396 -0.26457033 -0.21458703 0.266757 0.34526917 -0.21489273

layers.2.bias f4 [2]
00000000: 9147 153c e465 2b3d
0.009111301 0.041845217
