checkpoint_actor1.pth (torch_old, 524671 bytes, 6 tensors)

layers.0.weight f4 [400, 24]
00000000: 6e0b ab3d 04c5 813d 4dd4 4e3d b85b 293c
00000010: a59e a7bd b8da 49be 1729 b3bc 03b1 47bd
00000020: b11c 033e 40e3 8f3c 190f 293d 5692 063d
00000030: f472 67be 1e89 75be c1c1 3e3c 37fc 3e3d
00000040: 9d88 413e b9ae 093e 0f7d 063c 8cc0 803d
00000050: 7109 a9be 0e13 bcbe 5eef 123c 3404 5c3d
00000060: 974e 1c3e f854 693e 715f 71bc 2d43 2d3d
00000070: ce19 2d3e 7105 07be a323 51ba 0563 d3bc
00000080: 9f68 a83d c3e8 183e 8c82 27bb 05fe 293c
00000090: 13c5 ef3c 7d74 95bd d974 69bc 0c19 89bc
000000a0: fc28 f33d bfd1 1a3e 7283 ca3c e20a 2cbc
000000b0: 9a4b 20be 5fbd 9b3d 5827 753c 5a67 2d3c
000000c0: 0270 763e 33f7 9abd 5377 243c 1de0 c2bc
000000d0: efad 3ebe 8fc9 d2be 8475 12bd a578 43bd
000000e0: 8f7f 953e ee5e 053d 2b76 c3bc 8eb6 8bbc
000000f0: 6c56 a7bc dffd 7fbe 4ba9 023d cba2 ffba
00000100: 9eb9 5c3e 518d c7bc 4846 75bc b559 493d
00000110: 5530 3d3e 6469 43be 7d26 bb3b e1db 973d
00000120: fba9 843d 4a88 9e3e 5937 99bc 6c24 2a3e
00000130: 3e70 2f3e d113 51be 1091 44bd ef0f c33d
00000140: 8d15 ab3d f89f 7e3e 9080 3bbc 8ec8 1fbd
00000150: e2f7 3dbd 41a3 a73c 9fa0 e7bc 4b06 85bd
00000160: f724 ce3d 4ee2 893e d834 1e3c f269 34bd
00000170: d9a3 dfbc bab1 653e 0dad 4bbd 0ac2 09be
00000180: ac70 113e f21a 42bd d1a3 37bc a467 85bd
00000190: 790d 5fbe d037 85be 04c9 8abc 486a f2bb
000001a0: b583 243e 090d 15bd 4eb4 b53b 2d19 893d
000001b0: 0b78 7dbc 2ee2 b5bd af9b 3fbc ae35 083d
000001c0: 2f2a 003e 82f3 c7bc 78fa a63b 4d82 61bd
000001d0: 74d0 383e edf7 1a3e 4259 c6bc 96e4 53bd
000001e0: 42ce 37bd 1e48 ae3e 9996 4dbd 1b01 b13d
000001f0: 61c7 55be 0e1f 923e 604c b03c 585c b83a
00000200: 173e 303d 252a 963e 2cbe 263c fcfe b93c
00000210: b6ec 703d 0042 813e bec2 05bd 03ef 4c3b
00000220: 47c4 a03d 80ee 983e c36c cc3c d638 c23c
00000230: c56d e23e 831c d1bc 1d64 f0bc bb34 58bd
00000240: 3810 503d 84c9 44be ba75 073c 4cd3 5fbd
00000250: dbae a23c 7e06 303e 24b9 fbba 8071 4bbd
00000260: b646 edbb f03e 2abe c770 1dbc 757a 05be
00000270: 0525 143e 2cef 4a3e ab3b 5d3c 67ad 00be
00000280: 02bb 743d 4d09 77be 77c5 9f3b 1db7 96bd
00000290: 914c da3e 646b d93b 50a1 12bc 5fa2 31bd
000002a0: c7ff 4d3e 2c20 80ba 3ec1 13bc 96e8 d0bc
000002b0: 9269 18be d100 e3bc 4628 8fbc 9627 bcbc
000002c0: 0b67 343e 239f c7bd f008 10bb 409d 873d
000002d0: ae29 7bbe 71b8 013c 1374 293c 0ed6 813d
000002e0: 5bdc 4b3e cee2 a3bd fa81 443d 1d69 4bbe
000002f0: 4100 c8be 9665 b13d 4a7e 9b3c 6aec fbbd
00000300: 8da6 103d 9e03 e9be e947 d1bb d044 b8bd
00000310: 8248 2dbe 9ee8 ddbd c820 19bd 7ec8 b1bd
00000320: 244a 83bb 24bf a3be b5f3 8abc 6014 f4bc
00000330: 7056 fcbb 37bb 7ebe 3e8d 27bd ce77 3abd
00000340: 98b0 8cbd 9c20 a7be 5e64 153d 0954 d53d
00000350: a2c1 8f3e 4777 8dbe 90d7 30bc bc8f 0b3e
00000360: 71f0 e53d dafb 35bd c75c 8abc f6d6 f9b9
00000370: 84c7 0f3e bb67 7dbd 26fd ab3b 96b3 38bc
00000380: 8371 393d a2bf 9cbc d60f 43ba f923 cd3a
00000390: 4d91 413e 22bd 64be 5710 eb3c 52bc 333d
000003a0: c4b9 e03d 09d2 35bd 7665 8e3b bd38 d53c
000003b0: fd8d b83e 53f1 75bf 4621 1b3d 4576 9ebc
000003c0: 19c6 43bd 60f2 fdbd 8fd4 063d 5dc5 4d3a
000003d0: 5f8e d33d fe04 55be a837 a2bb 18bb 483d
000003e0: f681 d7bc ed7e 8dbd 684d 863c d180 78bb
000003f0: 1841 31bd b05b a53b ac49 113d 0ff5 97bc
0.083517894 0.06336406 0.050495435 0.010336809 -0.08184556 -0.19712341 -0.02187018 -0.048752796
0.12803914 0.017564416 0.041274164 0.0328544 -0.22602445 -0.23978087 0.011642874 0.04662725
0.1889977 0.13445558 0.008208527 0.062867254 -0.33015016 -0.36733288 0.008968202 0.053714946
0.15264355 0.2278632 -0.014732228 0.042300392 0.16904375 -0.1318567 -0.00079780276 -0.025804052
0.0822308 0.14932542 -0.002555999 0.010375504 0.029268777 -0.07297609 -0.01424905 -0.016735576
0.118730515 0.15119074 0.024720881 -0.010500642 -0.1565384 0.07604479 0.014962994 0.010583723
0.24066165 -0.07566681 0.010038215 -0.023788506 -0.18621038 -0.41169402 -0.035756603 -0.047722477
0.29198882 0.032561235 -0.023860058 -0.017054822 -0.020426951 -0.24999188 0.03189973 -0.0019503472
0.21555182 -0.024359377 -0.01497037 0.049157817 0.18475468 -0.19083172 0.0057113753 0.074149854
0.06477734 0.30963355 -0.01870315 0.16615456 0.17132661 -0.20417716 -0.047989905 0.095245235
0.0835372 0.2486571 -0.011444226 -0.039009623 -0.046378978 0.020463588 -0.028274832 -0.06495341
0.10065644 0.2693047 0.009656154 -0.04404635 -0.027299808 0.22431079 -0.04972558 -0.13452926
0.14203137 -0.04738898 -0.0112084905 -0.065139085 -0.21782483 -0.26019144 -0.016941555 -0.0073979236
0.16065867 -0.036389384 0.0055451756 0.06694255 -0.015470515 -0.08881031 -0.011694833 0.033254318
0.12516092 -0.024408106 0.005095776 -0.055055905 0.18048269 0.15133639 -0.024212483 -0.05173167
-0.044874437 0.34039396 -0.05019245 0.08642789 -0.20876838 0.28539318 0.021520793 0.0014065607
0.043027963 0.2932903 0.010177176 0.022704594 0.058819495 0.25245667 -0.032656424 0.0031270392
0.07849937 0.2986946 0.024954205 0.023708742 0.44224373 -0.02552629 -0.029344613 -0.052784663
0.050796717 -0.19217497 0.008267814 -0.054644868 0.019858768 0.17189977 -0.0019204956 -0.04966879
-0.0072410954 -0.16625571 -0.009609408 -0.13034995 0.14467247 0.198178 0.0135029955 -0.12566148
0.059748657 -0.24124642 0.0048758346 -0.07359145 0.4263654 0.0066351164 -0.008949593 -0.04336774
0.20117103 -0.0009775213 -0.0090182405 -0.02550153 -0.14884022 -0.02771035 -0.017475259 -0.022968095
0.17617433 -0.0974715 -0.0021977983 0.0662179 -0.24527618 0.007917509 0.010342616 0.06339656
0.19908278 -0.08002244 0.047975518 -0.19864316 -0.39062694 0.08661954 0.018981118 -0.12300952
0.035315085 -0.45510572 -0.006386746 -0.089975 -0.16922191 -0.10835384 -0.03738478 -0.08680819
-0.004006641 -0.31981766 -0.016961912 -0.029794872 -0.007700734 -0.24876104 -0.040906183 -0.04552441
-0.0686962 -0.32642066 0.03647267 0.10416419 0.28077418 -0.27630064 -0.010793582 0.13629049
0.11227501 -0.044429637 -0.016889943 -0.0004765314 0.14040953 -0.061866503 0.0052486835 -0.011273285
0.04527427 -0.019134346 -0.00074410194 0.001565098 0.18903084 -0.22337773 0.028694315 0.043880768
0.10972932 -0.04438976 0.004345591 0.026028031 0.36045828 -0.96071357 0.03787353 -0.019343505
-0.047796343 -0.12399745 0.032917555 0.0007849539 0.103298895 -0.20802686 -0.0049504824 0.04900655
-0.026307087 -0.06908975 0.016394332 -0.0037918577 -0.04327497 0.0050463304 0.03547065 -0.01854947

layers.0.bias f4 [400]
00000000: a3f3 db3d 6734 fdbd dd90 9fbc a5d1 83be
00000010: 9dbc 17bf 43ae ddbe b420 4abe 0160 133e
00000020: 6df3 7c3e bca9 84be bbdc 77be ff8a 803e
00000030: 585f ff3c c7e5 89be a87f c03c df3b 6e3d
00000040: 8a9c 97be cb1b fa3d 7463 bdbc 95f3 9abe
00000050: 19f9 a1bb 5075 1a3d cb21 d3be da9c 853e
00000060: 6e08 6b3d d12f 6cbe 3eac 02be 708a 323d
00000070: 5ba6 c63e fe33 a9bd 8a55 b1bc 5a72 3b3e
00000080: 4e6b 79bd 2431 e1be 2a45 a7be 4c4d 873e
00000090: ef95 8a3d bddd b6be 3b52 07bf f41b 813e
000000a0: 32da 36be 4e1f 213e b478 ab3e b798 833e
000000b0: c03e f73d f2af c33d 26b5 5bbc 305c 3dbe
000000c0: e157 463e 892f 28be b338 77be 0fa5 b63e
000000d0: f3ad dc3e 25b5 1ebe 9b18 87be 8621 15be
000000e0: 9ea8 e2bd 94b3 ba3d 6ce6 26be d891 c8bd
000000f0: 1f56 193e 7da4 30be e61e 1cbe 134e 0fbe
00000100: ad5f acbe 73ba 31bd 9bf4 c9bd ce5b b6be
00000110: b415 02bf b151 713d 1502 48be 65c9 15be
00000120: 05cd 8abe 2031 9a3e 67ef 3abd c9d5 94be
00000130: b4af 1ebe 11f7 03be 9c8d 61be 8225 57be
00000140: bbc8 383e ae0b 513d ba08 9f3e c799 f5bc
00000150: e51c 4bbe b627 fbbc 31bd 983d 0cb2 12bd
00000160: d59b 07bd 4e25 203e 15e6 d43b 22f9 01bf
00000170: ef08 813d 3801 093d a448 bd3e 69ba 7bbe
00000180: 9b79 68be 3c24 e33d 5ec1 9fbc 79aa 213f
00000190: 292d abbe be48 88be 39b9 30be c086 db3e
000001a0: a9d2 0abc f81a 3b3e d779 003e 73ff 503d
000001b0: 6f95 a3bd 47dd a5bc a9ca 1e3e c448 81bb
000001c0: 818c 4dbd 002e bb3d 389e 35be ae85 853e
000001d0: 4f3b 9bbe d50c 5e3c 7f90 0abf 93ec 01be
000001e0: 91f5 63be 582a 0ebf 204e 1e3e f5fe c33e
000001f0: ee43 8ebe 0f16 2ebe 79c1 b0bd acda 73bd
00000200: 3316 bbbd 4810 813d c050 52be eebf aebe
00000210: e323 ddbe fbec eebd 0cf3 29be 8110 0bbe
00000220: 7b3a 9dbe 182a 77be f62d 85be 1dc6 27be
00000230: 6732 98be 5aff 89be dc89 0bbe 162d 503e
00000240: 96a2 68be d183 1b3d c0b7 ccbe 23cc 143e
00000250: 287e 96be f6f8 913d 69b7 4e3e af3b 4bbd
00000260: 2324 98be 58f1 9fbd eebf 413e f5ac bdbd
00000270: 2601 c1be 9781 a8be f097 a4be dff5 bb3e
00000280: 28d8 19be 24f4 023f 6c71 84be 1767 063e
00000290: f824 e0bd 3805 b2be 7d0e 553d a209 2fbd
000002a0: cde8 723d 21a5 0bbe 8bd9 a7bd dc31 0dbe
000002b0: e8b7 1939 1075 febe 850c e23e b051 433e
000002c0: 60e7 46be f88a 113e 9e52 c1be bf87 7dbe
000002d0: 1dc5 f0be b42b b3be a6d8 bdbd 77dd 9abe
000002e0: 53be 8e3d 8ea6 7cbe 1bd3 c73e 50d7 90bd
000002f0: a556 023e c97e 6fbe 90d3 35be 8715 f7bd
00000300: 85f1 cfbd 1d3d 873e a06d bfbe a1c5 7e3d
00000310: 43c9 bebe 7fa1 27be fd25 4f3c b2c5 f6bd
00000320: 2ac8 683e 5aba 933c 0f7c 21be 6525 933c
00000330: a66b cbbe 5717 4cbe 4bc5 15bf a207 95be
00000340: e15c 43bd 823c da3d a366 c43e c63f 6ebe
00000350: 4885 1e3d db4f 333e e06e 52be 9bf8 1f3e
00000360: 6537 d13d 8b40 5abe 01ae 093d 5068 133d
00000370: 2e2d 88be 4375 a13d eaeb fabd 87ed 153c
00000380: a344 e33e b26f e93d 1300 6cbe cca4 af3d
00000390: 74a6 33be e602 17bc f624 483e 0583 bfbe
000003a0: 2c4b e63c 916a d5be 6af8 d23d 0465 1ebf
000003b0: 73e1 9d3d 89b9 7c3e b54a 323e fee7 20be
000003c0: 3454 9d3d 9de4 dbbd 3b54 a03b 189e 61be
000003d0: 3250 61be 3893 61be f24b 963d e68f e9bc
000003e0: 7a12 8bbe 09bb 343d 5a7b f03c cb78 b53e
000003f0: e96c b23e 749d 37be da67 303e bf39 333e
0.107398294 -0.123635106 -0.019478256 -0.25745884 -0.59272176 -0.43297014 -0.19739038 0.14392091
0.24702235 -0.25910747 -0.24205296 0.25106046 0.031173393 -0.2693312 0.023498371 0.058162566
-0.29611617 0.12212332 -0.023118712 -0.30263963 -0.004943025 0.037709534 -0.4123672 0.2609623
0.057381086 -0.23065116 -0.12761018 0.043589056 0.38798794 -0.0826187 -0.021647234 0.1830534
-0.06089335 -0.43982804 -0.32669955 0.2642616 0.06766879 -0.35716048 -0.5285985 0.2521664
-0.17856672 0.15734598 0.33490527 0.2570245 0.120725155 0.09555043 -0.013409888 -0.18492198
0.1936946 -0.16424383 -0.24142723 0.35672805 0.43101463 -0.15498789 -0.2638596 -0.1456357
-0.110673174 0.09116283 -0.16298836 -0.097934425 0.14974259 -0.17250247 -0.15246162 -0.13994627
-0.33666745 -0.043390702 -0.09861108 -0.35616916 -0.50814366 0.058915798 -0.19532044 -0.14627607
-0.27109542 0.30115604 -0.045638468 -0.29069355 -0.15496713 -0.12887217 -0.22026676 -0.21010402
0.18045323 0.05103653 0.31061345 -0.029980553 -0.19835241 -0.030658584 0.074579604 -0.03581433
-0.033107597 0.1563923 0.0064971545 -0.5077077 0.06300532 0.033448428 0.36969483 -0.24582829
-0.22702639 0.110908955 -0.019501384 0.63150746 -0.33432892 -0.26617998 -0.17258157 0.42876244
-0.008473077 0.18272007 0.12546478 0.051024865 -0.079874866 -0.020247115 0.15506996 -0.003945442
-0.050182823 0.09139633 -0.17736137 0.26078552 -0.30318686 0.013552864 -0.54126734 -0.12687902
-0.22261645 -0.5553336 0.1545949 0.38280454 -0.277862 -0.17000602 -0.08630652 -0.059534714
-0.091350935 0.063019335 -0.20538616 -0.34130806 -0.43191442 -0.11666294 -0.16596621 -0.13580514
-0.3070868 -0.24137151 -0.26011628 -0.16384168 -0.29725954 -0.2695263 -0.13626808 0.20329699
-0.22718272 0.037967507 -0.3998394 0.14530997 -0.29393125 0.07127564 0.20187153 -0.049617466
-0.2971507 -0.078097045 0.18920872 -0.092615046 -0.3769619 -0.3291137 -0.3214717 0.36711022
-0.15023863 0.5115378 -0.25867784 0.13125263 -0.10944551 -0.34769607 0.05201577 -0.042733796
0.059304047 -0.1363721 -0.0819579 -0.13788551 0.00014659727 -0.49698687 0.44150177 0.1907413
-0.194242 0.14213169 -0.37758344 -0.24758814 -0.47025385 -0.3499428 -0.09269838 -0.3024709
0.06969895 -0.2467291 0.39028248 -0.070723176 0.12728365 -0.23388208 -0.17756486 -0.12064653
-0.10153488 0.26413813 -0.37388325 0.062200192 -0.37262926 -0.163702 0.012643334 -0.12049426
0.22732607 0.018033195 -0.15769981 0.017962167 -0.39730567 -0.19930778 -0.5850417 -0.29107386
-0.047695998 0.10656072 0.38359556 -0.23266515 0.038701326 0.17510931 -0.20550108 0.15622179
0.10215644 -0.21313684 0.03361321 0.035988152 -0.2659697 0.07883694 -0.12252028 0.009150869
0.44388303 0.11398257 -0.23046903 0.085763544 -0.17543966 -0.009217 0.1954535 -0.37404647
0.028112017 -0.41682866 0.103012875 -0.6187289 0.07709017 0.24680151 0.17411311 -0.15713498
0.07682076 -0.10736964 0.0048928536 -0.22032964 -0.22003248 -0.22028816 0.07338704 -0.028510999
-0.27162534 0.044123683 0.029355694 0.3544372 0.34848717 -0.17931157 0.17227116 0.17502497

layers.1.weight f4 [300, 400]
00000000: 613f 103e 3a06 30be 9d2b 8a3d 659e 0f3e
00000010: 500b 173e 010b 2ebe 03ae b13d 8cb8 153e
00000020: 1c9c ef3d 5762 febc 4134 8e3c 3a65 a63d
00000030: b9b8 643d f8e4 46bd 28d2 b13d 3653 e0bc
00000040: e26a 683d 9364 e63c 9d64 853d 6a1b 003e
00000050: 6769 a33d 879b 0b3d 5438 7c3a 0676 f03d
00000060: e398 863c 4d4e edbd 26a2 a83d f811 3c3e
00000070: fd4c d63b 96d6 42bd 0038 fe3b ed62 bdbd
00000080: a393 423e d0b0 07bd 6d94 e1bd f81d ff3d
00000090: abce edbd 08c4 3b3d da3a 043d f60b 8c3d
000000a0: 0504 fa3d 0673 78be 06bd 28be 491b 833d
000000b0: 45e7 c53c f3d4 7b3e 5f56 373d 0daa 9d3c
000000c0: e07b 6d3c d2f9 033d fcb5 a6bc 3a5d c0bd
000000d0: ca29 e5be a6e3 8abb e63c c3bd 3f2e 6fbd
000000e0: f719 9e3d 9b84 c03d d997 15be 63e4 1b3b
000000f0: 2893 b23c be2b 2b3d 9a42 46bc 1bca cabc
00000100: 2441 8dbd 95c8 863e bd9e dc3d 66e7 edbd
00000110: 61f4 f5bd a66a 01be dce0 cc3d dc96 23be
00000120: 4f73 a9bd 4b4e 583c 1a1b 12be 7919 043d
00000130: 4294 20bd 2cd6 983c c286 4b3c 4266 27be
00000140: 5de2 f53d 3097 38be 7a19 9fbc 752c b53e
00000150: 4041 353e df51 7cbd 41a8 8a3d 3899 93bd
00000160: c1b3 083d cda0 f33c 3faa 0a3d c5b6 063c
00000170: 596f 4e3e eff5 a8bd 0e6b 94be 8fc3 9b3d
00000180: 7c78 2bbe 5d98 fa3d 5619 b4bd a0ff 6ebf
00000190: 4145 81bd 71b5 b53d e5e3 a23d b63b 2cbe
000001a0: 09bc 6b3e df42 23bd d2c4 ccbd bed2 cf3d
000001b0: a393 ddbd 2636 e23d e198 253d 4c8d a4bd
000001c0: c754 41bd db25 0abd 06af 0abe e4e3 7b3d
000001d0: 042f 123d de65 98bd 6207 1fbb da74 1dbb
000001e0: 9595 3e3e d090 c2bd 492f de3b 273f 47be
000001f0: a98a 9c3c a96d 38bd 3cfe d1bd fc2e dfbc
00000200: 355e 86bd cf7e 63bd 77cd e1bc 5db7 57bd
00000210: 306f dabd 68c1 2e3c 6ccf 4ebd c078 b43d
00000220: 1279 aebd 8fba 523e 49f1 a23d c53f 9ebe
00000230: 1d08 753d 4015 0f3d 2ca3 10bd 3b6b 803e
00000240: 6e4a 87bd 88a3 92bd e15a a1bd 2f63 f7bd
00000250: 16d5 a2bd 195c 8d3d e054 f9bb 7f54 94ba
00000260: 2d93 843e a4e3 e93d 73ea 973c e37b a9bd
00000270: a6d7 13be 2a6f b33d fb7d 5e3d c5ca db3d
00000280: 740e 163e 89cb 013c 017c 6c3d e91e 553e
00000290: cc1d 2bbd 453e 863e 3b8b cabe ad8c e5bd
000002a0: ff1f 6c3d cd2e 943d 0ea5 423e 9ed7 67be
000002b0: 03e0 cdbd 61c5 643d 7903 1a3e 368a ffbc
000002c0: 068b 99b9 4ca6 973d 2256 58be 11b5 65bb
000002d0: f030 3fbe e187 5fbd db5f 263e a750 2dbd
000002e0: 52a2 fd3d 1046 353d 4e02 833e a3a0 03be
000002f0: f66a ccbe 5e60 a3bd a14e 063e 2fce c0bd
00000300: 6da1 fd3d a0ac 6cbd 200f 223d 9012 b53d
00000310: 9dd1 2c3d 2383 9bbe a663 fa3c 8ce8 c1bd
00000320: f6f6 933d 1cde 033d 703a 34be 0455 733e
00000330: b26b 073e 365f 233d 66e0 e13d cebf 11bd
00000340: 25ce 193d 58a5 49bd fd14 0abc 3a36 883c
00000350: e8b2 00bd 521b 11bf 740b 3e3d e259 95bc
00000360: 069b 08bf be7f 57bd d4af 453e ef77 adbc
00000370: 1c22 e53d 068e 24bd 5aad f1bc c13e 8a3c
00000380: cea1 aabd 2939 0fbe ba0b 97bd 8814 e0bc
00000390: 0fe4 0c3e 0768 abbd c093 d03c 9b29 84be
000003a0: d3b2 e7bc 129d 3b3c 5d9a a03d 5717 223a
000003b0: 39ea e33d 4f0f e63d ce61 343d 8cab a1bd
000003c0: 6f42 023e 48ce dfbe d205 573d d900 813e
000003d0: 7473 1abd d3c5 613d 7920 f43d 0294 0f3d
000003e0: acba aebd ae13 65bd ee9a 113e f38a 8fbe
000003f0: a131 aa3d a8fd 5abd af21 273e 2999 a6be
0.14086677 -0.17189875 0.067466 0.14025266 0.14750409 -0.16996385 0.08675768 0.1462118
0.116996974 -0.031052751 0.017358901 0.08124776 0.055840228 -0.048558205 0.08682662 -0.027383428
0.056742556 0.02812413 0.06513331 0.12510458 0.07979088 0.03408387 0.00096214307 0.11741261
0.016430324 -0.115872 0.08234052 0.1836623 0.0065399394 -0.047567926 0.0077581406 -0.09247384
0.19001631 -0.033127606 -0.11014638 0.12456888 -0.116116844 0.045841247 0.032282688 0.06838219
0.12207798 -0.24262628 -0.16478357 0.064016886 0.02415813 0.24592952 0.044760104 0.019246126
0.014494866 0.03222067 -0.020350449 -0.093927816 -0.44758445 -0.0042385636 -0.095331 -0.058393713
0.07719796 0.094002925 -0.14608707 0.0023787252 0.021798685 0.041789763 -0.01210084 -0.024754575
-0.0689719 0.26324907 0.107724644 -0.116164014 -0.12009502 -0.1263834 0.10003826 -0.15975517
-0.082739465 0.01320226 -0.14268151 0.032250855 -0.03920389 0.018656813 0.0124222655 -0.16347602
0.12006066 -0.18026423 -0.019421328 0.3538548 0.17700672 -0.061601516 0.06770373 -0.072069585
0.03337455 0.029739762 0.033853766 0.008222287 0.20159663 -0.08250033 -0.28987926 0.07605659
-0.1674518 0.12236092 -0.08793895 -0.933588 -0.06312037 0.08872498 0.07953624 -0.16819653
0.23020948 -0.039858695 -0.09998478 0.10147618 -0.10819175 0.11045484 0.040429 -0.08034763
-0.04719999 -0.033727508 -0.13543329 0.06149663 0.03568937 -0.074413046 -0.0024265875 -0.0024025948
0.18611749 -0.09500277 0.006780539 -0.19457684 0.019109087 -0.045026455 -0.102535695 -0.027244084
-0.06560937 -0.055540856 -0.027563794 -0.052665103 -0.106657386 0.010666229 -0.05049078 0.08812094
-0.08519186 0.20578979 0.07956178 -0.30908027 0.05982219 0.034932375 -0.035311863 0.2508181
-0.06605993 -0.07160097 -0.07878662 -0.12079465 -0.07950799 0.06902332 -0.007608995 -0.0011316686
0.25893536 0.11420372 0.018544411 -0.08275583 -0.14437732 0.08761437 0.054319363 0.107320346
0.14653951 0.007922062 0.057735447 0.20812573 -0.041776463 0.26219383 -0.3955935 -0.112084724
0.0576477 0.07235489 0.19008276 -0.22640845 -0.100524925 0.055852298 0.15040387 -0.031193834
-0.00029286015 0.074047655 -0.21126607 -0.003505055 -0.18671012 -0.054572944 0.16247503 -0.042313244
0.12384476 0.04425627 0.25587696 -0.12854247 -0.39925355 -0.07977365 0.13115932 -0.094143264
0.12384305 -0.057781816 0.039565206 0.08841431 0.04219209 -0.30373487 0.030565094 -0.09468183
0.072248384 0.032194242 -0.17600417 0.237629 0.13224676 0.039885722 0.11029129 -0.03558331
0.03755011 -0.04922995 -0.008427856 0.01662742 -0.03142062 -0.5668231 0.04639764 -0.018231336
-0.53361547 -0.05261206 0.19305354 -0.021175353 0.111881465 -0.040174507 -0.029501606 0.016875627
-0.08331643 -0.13986649 -0.073752835 -0.02735354 0.13758872 -0.08369451 0.025461078 -0.25812992
-0.028283512 0.011451023 0.078419425 0.00061832875 0.11128659 0.11233389 0.044038586 -0.07894048
0.12720655 -0.43712068 0.052495785 0.2519596 -0.03770776 0.0551203 0.11920256 0.03505326
-0.085316986 -0.05592697 0.14219257 -0.28035697 0.08310247 -0.05346456 0.16321443 -0.32538727

layers.1.bias f4 [300]
00000000: 4914 22be dd80 61be 4b62 c33d 3ccd cabd
00000010: fa67 46ba 9fab eabd 2c36 b3bc 5918 9abd
00000020: ed5c ccbd 1520 113e 49ea 43be 44ee 28be
00000030: e2f0 edbb d9cf 083d 2b0f 20be 80be 1cbe
00000040: 49ce 6bbe c123 c3bd 2728 15be 5a11 593d
00000050: bfbe 72bd 0b6f d2bd cdea 103c 199b 47be
00000060: 95ab 70bd aad5 9ebd 86e6 35bd 6cd6 4bbc
00000070: 2404 5bbd 03ba b7bd 2fe0 2fbe dd4e b0bd
00000080: 3591 adbd 03e3 fdbd 2013 f7bd a811 d4bd
00000090: bf6b 85be 0b15 ee3c b6b8 a6bc 1755 d5bc
000000a0: 0618 423d ea40 b5bd 415b e4bd f10a 9ebc
000000b0: f1a3 41be 85ac a1bc ae06 02be 2a32 95bd
000000c0: 925e e4bc 2a9b 323e f6f7 98be 7d42 343e
000000d0: 41db 0bbe f5cb 18be 6fc0 7e3d 6632 3abe
000000e0: f34a c23b 0be1 61bd 6bb1 88bc 8ee6 653d
000000f0: 88fe fcbd 4b87 03be d8db b2bd 0cc7 e2bd
00000100: 4e81 93bc cf82 b13d 3527 e7bb 5465 1abd
00000110: a9c9 3e3d 2579 523e ce9a 03be 20b2 02be
00000120: 6043 bebd 27db d2bd 7749 3ebe ebbb 00bd
00000130: 20af 44be 49d3 dfbc d7bc d5bd 6550 3dbe
00000140: d005 343d 5e24 0dbe d37f 033e 9b0b 85bc
00000150: c6cf d0bd 4beb 7dbd 89c0 e5bd 8736 b0bd
00000160: 1535 48bd af9d de3d d5c3 52bd ba58 003b
00000170: 3b35 4bbe b596 3f3d 6b34 b7bd 2d15 32be
00000180: dce6 6ebe 182a b93c 54f7 43be 4be4 a6bd
00000190: 1cea b0bd f105 33be 3bcd 743d 8461 14be
000001a0: 72c7 adbd c858 a1bd e1b5 1e3e 41e0 77be
000001b0: e48f 01be df53 61be d4f2 013d c749 2abe
000001c0: 44fb 41bd ff50 b03b 7fed 21be b698 4fbe
000001d0: bc3f fabd 09ed 0dbd 32de 3dbd 1e8a 9c3e
000001e0: a7b8 0ebb 82ca 00bd 45e3 f83b 1217 0fbb
000001f0: d4c4 9dbd d7d4 b8bd 8745 093d aca7 d8bd
00000200: cd91 c6bd 0a77 0cbc ff9b 42be fed9 72bd
00000210: a44d 54be 97f6 27be 398a afbd 14f9 53be
00000220: 79f5 04bd 6bb6 12bd 4d63 113c 4614 48be
00000230: 09d6 83bc 1acb fbbc 8786 153e 0ea3 983c
00000240: ede8 0cbe c9ee 8ebc cc37 78bd e864 15be
00000250: 3ee5 d8bd 69a8 23be 70db 48be 1c36 35be
00000260: e2d0 a0bd 779e cc3b c603 babd 7309 ebbd
00000270: de7d 0e3c a0e7 e9bc 58f5 f43d 5b61 a7bc
00000280: fbaf c93d 4343 0cbe b7fc 703d 320d fc3c
00000290: 94cd 4abe b13e 70bc e1fb b8bd 8941 223d
000002a0: 0a27 c13d 6236 613d 91d3 ebbc ef76 76be
000002b0: faad 9ebd b907 38be e3aa 36be a8d8 1ebe
000002c0: 6b4c 083d 36fc 60bd 2e41 51bd 0a79 c2bd
000002d0: b8d7 fd3c 9d91 81bd 44e6 9bbd 9770 2cbe
000002e0: b802 c5bd 4202 773c 1d7b 19be 9fcd 7fbd
000002f0: 7b0f 0cbe 14e5 a3bd dadc 0d3d 5d6c 1cbc
00000300: f105 3fbe 6993 2cbc 9a61 1b3e bf04 0cbd
00000310: 3780 263c 95c5 da3d 4596 a5bd ffa4 b43c
00000320: 67ae 8abd 92cd 1abe 593a db3a 69d8 1ebe
00000330: db62 a2bd bd25 21bd 5441 c63b b0e4 8e3d
00000340: d597 4abe d243 523d 8ab8 86be a58a 6dbe
00000350: 3f51 5dbe 8fa8 9ebd 5a4e 0d3d 1fa1 283e
00000360: abb0 63be 752a 1b3b 4b65 77be f3b1 7c3d
00000370: d3f1 953d 67ef b5bd 4420 c13d 0173 21be
00000380: 2fdd 1ebe 9f73 c83d 4614 693d 64c8 a33d
00000390: c669 833d ffbc 21be 4fae 23bd 52c2 eebb
000003a0: 8507 febd bc2b e2bd c120 4bbe cb94 31bc
000003b0: c440 babd 2bf1 733d cb20 1abe 95e3 9ebc
000003c0: bed2 1f3c 86d5 15bd d1f8 33bc 42f8 e1bd
000003d0: 7bfe ecbd bee7 67bc 2832 363d 4995 08be
000003e0: 1298 2abe 8116 793c 34d8 87bd 1ed3 c83c
000003f0: c712 803e 5272 87bc 572e dc3b dbfc 59bd
-0.1582805 -0.22021814 0.09540232 -0.099024266 -0.00075685943 -0.114585154 -0.021876417 -0.07524175
-0.09978662 0.14172395 -0.19132341 -0.16497141 -0.0072613815 0.033401344 -0.15630786 -0.15307045
-0.2302791 -0.09528304 -0.14566098 0.052995063 -0.05926394 -0.10275086 0.008845043 -0.19492759
-0.058757383 -0.07755597 -0.044409297 -0.012441259 -0.053470746 -0.08971026 -0.17175363 -0.08608792
-0.08474962 -0.12396815 -0.12064195 -0.1035493 -0.26058766 0.029062768 -0.020351749 -0.02604155
0.04738619 -0.08850272 -0.11150218 -0.019292327 -0.18910195 -0.019735584 -0.1269786 -0.07284959
-0.027877126 0.17442003 -0.2987668 0.17603488 -0.13657857 -0.14921553 0.062195238 -0.18183288
0.005929345 -0.05514626 -0.016686162 0.056128077 -0.123532355 -0.12844579 -0.08733338 -0.110731214
-0.018005993 0.08667528 -0.0070542344 -0.03769429 0.046579037 0.20554025 -0.12852022 -0.12763262
-0.092901945 -0.10295706 -0.18582712 -0.031429213 -0.1920743 -0.027322428 -0.10436409 -0.184877
0.043950856 -0.13783404 0.1284173 -0.016240885 -0.1019588 -0.06199197 -0.11218364 -0.0860415
-0.048878748 0.108699195 -0.05145629 0.0019584135 -0.19844525 0.046774585 -0.08945545 -0.1739089
-0.23330253 0.02260308 -0.19137317 -0.08149012 -0.08638403 -0.17482735 0.059766036 -0.14490324
-0.08485307 -0.07878262 0.15499069 -0.2420664 -0.12652546 -0.2200465 0.03172572 -0.16629706
-0.047358766 0.0053807492 -0.15813254 -0.20273098 -0.122191876 -0.034649882 -0.04635448 0.30574125
-0.0021777542 -0.031443126 0.007595452 -0.002183382 -0.077035576 -0.09024971 0.033513572 -0.10578856
-0.09695778 -0.008573303 -0.1900482 -0.059289925 -0.20732743 -0.1640266 -0.08571286 -0.20700485
-0.032460663 -0.0358185 0.008873773 -0.19538984 -0.01609327 -0.030736495 0.146021 0.018632438
-0.13760729 -0.017447846 -0.060600087 -0.14589274 -0.105905995 -0.15982212 -0.19614959 -0.17696422
-0.07852341 0.0062444764 -0.09082751 -0.11476412 0.008697001 -0.02855283 0.11960858 -0.020432165
0.09848019 -0.13697533 0.058834758 0.03076801 -0.19804984 -0.014663384 -0.09032417 0.03961328
0.09431274 0.054983504 -0.028787406 -0.24068807 -0.07748027 -0.17971696 -0.17838626 -0.15512335
0.033276003 -0.054928027 -0.05108755 -0.094957426 0.030986652 -0.06326602 -0.07612279 -0.16839825
-0.09619659 0.015076222 -0.1498837 -0.062451955 -0.1367778 -0.080026776 0.03463445 -0.00954732
-0.1865461 -0.010533192 0.15173951 -0.034184214 0.010162405 0.10682217 -0.08085302 0.022051333
-0.06771546 -0.15117481 0.0016725763 -0.15512241 -0.079290114 -0.03934263 0.006050268 0.069772124
-0.19784482 0.05133421 -0.26312667 -0.2319742 -0.21613024 -0.07746994 0.03449855 0.16467713
-0.22235362 0.002367643 -0.24159734 0.061693143 0.07321515 -0.08883553 0.09429982 -0.15766527
-0.15514062 0.09787678 0.0569041 0.07997206 0.06416659 -0.15794753 -0.039961156 -0.0072863484
-0.12403778 -0.11043498 -0.19836713 -0.010838698 -0.09094384 0.059556168 -0.15051572 -0.019395629
0.009754835 -0.036580585 -0.010984615 -0.110336795 -0.11571976 -0.014154373 0.044481426 -0.13338198
-0.16659573 0.015203119 -0.06633034 0.024514731 0.25014326 -0.016534004 0.0067193913 -0.053219657

layers.2.weight f4 [2, 300]
00000000: 9f09 e53e 6610 b7be 5c75 2a3d e327 89be
00000010: 348c 7f3b 5d98 7a3e 288e b3bd ef79 24be
00000020: eefc 4cbb 58ae a03d 4fd1 a5be aaa5 abbe
00000030: 1875 973f d4dd ebbf ebbc 9f3d 3736 d2be
00000040: 0e4e 3b3f f778 113e 7a81 ddbe 0534 ae3d
00000050: ef1c 073e c5eb 12bf 8d52 2cbe ca2f 103f
00000060: ceb4 dfbe 02d1 2fbd b499 03bf 3ae9 6cbd
00000070: d002 d3ba 5440 6dbe 7315 92bc c28e c0bc
00000080: 17dd 203e 8858 923f e1aa 68be 9d80 d23e
00000090: 8968 b7bd 3695 543e d15e 3cbe 491f 29be
000000a0: 4e6a c8bd 7785 8c3d 525c 9bbe f767 abbb
000000b0: 2d4e a2bd d034 b03c 1126 32bc fdff 893e
000000c0: cbc7 c53f f1e2 b6bc 00ae 173f c60e e73d
000000d0: f132 aabd c7fc 85bc f51c 42bd a11a 353c
000000e0: cb80 a4bd 8547 bebb 3d6b 113e a67b 5d3e
000000f0: e469 173f ef34 20bf 92f8 c9be 1f28 eb3b
00000100: 0c66 a03e 68c9 7c3e 053e 293e 74c0 81be
00000110: 73bb e33c bab1 a23d a940 803d f194 403f
00000120: edcf 7abd 709a a4bd 3679 a6bd b36a d8be
00000130: 8399 373e da41 5fbd a040 f8be 89b3 28ba
00000140: bee0 03bd fb42 43be d56e aebc 4ced 3f3f
00000150: e128 953d 32bf 5d3e d02b 2cbc e453 e0bf
00000160: 5e36 c8be 32f4 9d3d 3fe3 ddbe 5fbc 2dbc
00000170: 5e90 053f 3bce 69bf 0eaa 56bd dd9c c13e
00000180: 5712 90be bbab fabc 9f20 6cbe 581c f73e
00000190: e21e 88be b831 2bbe 65b9 ae3d 7a59 75be
000001a0: 32e2 0ebe 6fc5 ae3e 9d6e 9fbc 4fb1 d83d
000001b0: dfd5 00bf c947 7b3e 5b0c 403f 4abd f5be
000001c0: b27d ddbd 1b4a b43e 8545 ecbe 33cd ed3c
000001d0: 39d1 f63e 6b6a 9bbe f4ca 21bf c973 933e
000001e0: 9a86 8cbd 1e50 343f 538f eb3d 41eb 2a3f
000001f0: 2559 23bd fe68 f3bd d46c 3b3e e00f 5ebd
00000200: a9b1 3c3f cbb4 25be a745 ddbe 3026 1ebd
00000210: e1af 483e d77c 01be c922 ecbc 5ab8 f3be
00000220: bf2f 4c3f 2e7a 0cbd 20e1 b1be a56f 193c
00000230: 9faa 5b3e 7138 033f 2845 9bbc d8b5 173f
00000240: 1693 b7be fb39 fb3e eb49 873c 76ee e4bb
00000250: d5d9 a83e be1f 12be 7107 833e ab23 54bf
00000260: 0674 37bf b687 a5bd e786 00be c1e3 cdbe
00000270: 1b95 4abc 4a03 f6be f218 653d e4f0 c63e
00000280: 3482 f83e 23e7 5cbf 37e0 0d3f de8e 3b3e
00000290: 41b2 d43e 9bb7 c2ba adc8 a0be df4b abbe
000002a0: d9a2 373d b8c4 f83e a847 d63d f55d 89bf
000002b0: 3205 80bd 3a27 903d d010 90be 7e40 0abe
000002c0: 175a 4bbd 88de b63d 3980 353f 446c fcbe
000002d0: 44b7 24bc 02a4 aa3e 6603 9a39 4652 f6be
000002e0: 7acd 363e 9fdb 223f c655 aa3e e838 fe3e
000002f0: c2db 03be 13d8 a83e 91ab c73c 6fc9 4ebd
00000300: 5d8c e2be 84b4 79bd 5595 e03c e7b6 db3e
00000310: b9c0 253b 0694 663e 03ff 283e c30c f23d
00000320: ba95 e93c 716d 23bd 6799 c83c 9b52 193f
00000330: 28e3 16bf e50d e73e e36a bb3c f5e0 703f
00000340: 6523 cabe 9ebb a43d d376 823e e9a7 2ebe
00000350: 053a 3cbd d815 46bd dc3c 043e 2275 be3d
00000360: 1f4d bf3e e471 b1be 0960 fcbe 58d8 27bd
00000370: 9a3c 82bf c030 05bf 5b73 eebd 8f38 293e
00000380: 196b 203e 1e84 943a af9e d8bc 9d89 33be
00000390: f3ad bfbd db37 74bd 408a fdbc 2bc5 d03e
000003a0: bf23 52bd 2e81 fbbc 16b3 17bf 7e28 dfbe
000003b0: 9f98 f93e d2cb dfbc 1a1a 3f3b 8816 02bd
000003c0: a654 25bd f893 05bd 6a5a 833b 94bf 0bbf
000003d0: fb94 1dbc 5da8 15bc a75e 133e 8dcd aabc
000003e0: 9f30 01be d584 303b bed1 9e3e 8567 75bd
000003f0: a02c 9a3d 506b ff3b d518 7ebd 88a1 f83e
0.44733903 -0.357547 0.04161583 -0.26788244 0.003899348 0.24472184 -0.087673485 -0.16062139
-0.0031278688 0.078457534 -0.32386252 -0.3352483 1.1832609 -1.8427072 0.07799705 -0.41056988
0.73165977 0.142063 -0.43262845 0.08506016 0.13194631 -0.57391006 -0.16828366 0.5632292
-0.4369263 -0.042923935 -0.5140641 -0.05783961 -0.0016098861 -0.2316907 -0.017832493 -0.023505572
0.15709339 1.1433268 -0.22721435 0.4111375 -0.089554854 0.20760044 -0.18395545 -0.1651584
-0.09785901 0.06861394 -0.30343872 -0.0052308994 -0.07925067 0.021509558 -0.010873334 0.26953116
1.5451597 -0.022325011 0.5924988 0.11282115 -0.083104976 -0.016355885 -0.047390897 0.011053712
-0.08032378 -0.0058068656 0.14201064 0.216292 0.5914595 -0.6258077 -0.39447457 0.0071764137
0.31327856 0.24686205 0.16527565 -0.25342143 0.027799344 0.07944055 0.06262333 0.75227267
-0.06123345 -0.08037269 -0.08128588 -0.42268905 0.17929654 -0.05450616 -0.48486805 -0.0006435444
-0.032196753 -0.1906852 -0.021293083 0.7497146 0.07283188 0.21654966 -0.010508493 -1.7525601
-0.3910398 0.07712592 -0.43337438 -0.010603993 0.5217341 -0.9133031 -0.05240827 0.3781499
-0.28138992 -0.030599466 -0.23059319 0.48263812 -0.26586062 -0.16718185 0.08531455 -0.23959914
-0.13953474 0.34135005 -0.019461924 0.10580694 -0.5032634 0.24539103 0.7501885 -0.4799598
-0.1081499 0.35212788 -0.4614679 0.02902851 0.482065 -0.30354628 -0.63200307 0.28799275
-0.06861611 0.7043475 0.11501946 0.6676522 -0.039879937 -0.1188526 0.18303233 -0.05421436
0.7370859 -0.16182248 -0.43217203 -0.038610637 0.19598342 -0.12645279 -0.02882518 -0.47601587
0.79760355 -0.034296207 -0.3474207 0.009364997 0.21451806 0.51258 -0.018953875 0.59261847
-0.35854405 0.49067673 0.016514739 -0.0069864346 0.32978693 -0.14269921 0.25591615 -0.82866925
-0.7166141 -0.080825254 -0.12551461 -0.40212825 -0.012364651 -0.48049384 0.055931993 0.3885566
0.48536837 -0.86290187 0.5542025 0.18316218 0.41542247 -0.0014855744 -0.31403103 -0.33456323
0.044833038 0.48587584 0.10462886 -1.0731798 -0.06250991 0.07038732 -0.28137827 -0.13501164
-0.049646463 0.08929163 0.7089878 -0.4930135 -0.01005346 0.33328253 0.000293757 -0.48109645
0.1785182 0.63616365 0.33268565 0.4965279 -0.128768 0.32977352 0.024373801 -0.05048507
-0.44247714 -0.06096317 0.027414957 0.4291298 0.0025291874 0.22517404 0.16503529 0.1181884
0.028513778 -0.039899293 0.02448721 0.5989167 -0.5894036 0.45127788 0.022878116 0.9409326
-0.3948013 0.08043598 0.2548128 -0.1705624 -0.04595377 -0.048360676 0.12913841 0.09299685
0.37363526 -0.34657204 -0.4929202 -0.040977806 -1.0174744 -0.5202751 -0.11643096 0.16525482
0.15665855 0.0011330878 -0.026442854 -0.17532964 -0.0935935 -0.05962358 -0.030949712 0.40775427
-0.05130362 -0.030701246 -0.5925764 -0.4358558 0.48749253 -0.027318869 0.0029159845 -0.03175977
-0.04036393 -0.032611817 0.004008581 -0.545892 -0.009618039 -0.009134379 0.14391576 -0.020849967
-0.12616204 0.0026934643 0.31019396 -0.059913177 0.07528043 0.007794775 -0.0620354 0.4856074

layers.2.bias f4 [2]
00000000: b9d6 b23d 5c79 85bd
0.08732361 -0.06517288
